weights/deepLOB_PT/deepLOB_PT_BvGN33E8.pth (torch, 614606 bytes, 90 tensors)

conv1.0.weight f4 [32, 1, 1, 2]
-0.02610634 -2.1432893 0.5255718 1.8863866 -0.24686879 -2.6009398 1.0896648 -0.5467051
-0.84560734 1.0842152 0.07210745 -1.6342033 0.010748353 -2.158891 0.061163183 -1.7005522
0.010923755 0.15820542 -0.48868835 1.0264479 2.0135925 -2.182003 -0.8226749 0.47374815
-0.23711732 0.44137952 1.6568326 -0.86282325 1.4397604 0.123848125 -0.18361671 0.0007367537
-0.38465142 -1.0361571 0.36406752 -0.86138666 -0.1971521 0.7719012 0.84838146 -2.2209516
0.09475184 -0.7107109 1.1837957 -1.7231939 -3.219508 0.53648037 0.8587099 -2.1584752
-0.12714535 -1.7597076 1.1738547 -1.1387706 -0.22485021 0.44276103 -0.43809706 2.7188952
0.20637266 -0.84641206 -0.21256503 0.740439 -2.6824324 0.6575775 0.18079162 1.035882
00000000: f7dc d5bc a72b 09c0 e08b 063f 1e75 f13f
00000010: 2ccb 7cbe cc75 26c0 237a 8b3f def4 0bbf
00000020: b979 58bf 90c7 8a3f 12ad 933d 932d d1bf
00000030: dc19 303c 452b 0ac0 3f86 7a3d b2ab d9bf
00000040: 8df9 323c 9a00 223e 5c35 fabe a562 833f
00000050: b3de 0040 f0a5 0bc0 d29a 52bf 1e8f f23e
00000060: e2ce 72be 7ffc e13e 1713 d43f fce1 5cbf
00000070: 124a b83f 16a4 fd3d 0506 3cbe b422 413a
00000080: 08f1 c4be cca0 84bf 0f67 ba3e d683 5cbf
00000090: 3de2 49be 519b 453f 872f 593f 1224 0ec0
000000a0: 410d c23d 26f1 35bf 9e86 973f 9e91 dcbf
000000b0: 6b0c 4ec0 c756 093f 69d4 5b3f 7524 0ac0
000000c0: 6432 02be 193e e1bf df40 963f 3cc3 91bf
000000d0: 223f 66be 93b1 e23e 424e e0be 6102 2e40
000000e0: 5b53 533e 76ae 58bf a6aa 59be 698d 3d3f
000000f0: f9ac 2bc0 0057 283f 7021 393e c897 843f

conv1.0.bias f4 [32]
0.07882551 -0.012780495 0.73343605 2.3319144 0.58655965 0.21661021 0.08990926 0.30394447
-0.85423017 -0.8066763 0.6664412 -0.39987877 -0.91072416 1.0840702 2.4216979 -0.98552126
-0.62289006 2.1312885 -0.5132114 -0.06651732 -1.6278669 1.020543 0.1030345 0.46310267
1.6311841 2.4274507 -1.4346337 0.06641564 -0.33965477 -0.68330145 0.29040152 -0.49248087
00000000: 456f a13d 4865 51bc 77c2 3b3f 163e 1540
00000010: c628 163f 11cf 5d3e 5922 b83d 9c9e 9b3e
00000020: d4ae 5abf 5782 4ebf e49b 2a3f e9bc ccbe
00000030: 3825 69bf d0c2 8a3f 19fd 1a40 1f4b 7cbf
00000040: b975 1fbf 0867 0840 d361 03bf 3c3a 88bd
00000050: f15d d0bf 27a1 823f c003 d33d cb1b ed3e
00000060: a4ca d03f 5a5b 1b40 14a2 b7bf ec04 883d
00000070: 3be7 adbe d8ec 2ebf 82af 943e 7426 fcbe

conv1.3.weight f4 [32]
4.8375525 0.35979283 -0.034773584 0.06868374 0.79273015 0.6834383 5.56233 0.81436974
0.35669154 0.101846285 0.4519677 0.08636365 0.27313685 0.054566413 0.064103276 0.091464184
0.44178614 0.03680978 0.070406154 0.021250984 -0.079726 0.021416042 1.1185173 -0.019464806
-0.000186151 0.0050394884 0.38539335 0.82699776 0.3685889 -0.042818047 0.010795307 0.1263342
00000000: 3bcd 9a40 c436 b83e bf6e 0ebd 10aa 8c3d
00000010: 5df0 4a3f d0f5 2e3f 9bfe b140 897a 503f
00000020: 46a0 b63e c994 d03d 4f68 e73e 6ddf b03d
00000030: 98d8 8b3e 0881 5f3d 9448 833d 9351 bb3d
00000040: cb31 e23e dac5 163d 1a31 903d 8b16 ae3c
00000050: 6347 a3bd b270 af3c 932b 8f3f a874 9fbc
00000060: 8731 43b9 4b22 a53b 4752 c53e 20b6 533f
00000070: afb7 bc3e fa61 2fbd cdde 303c c15d 013e

conv1.3.bias f4 [32]
-0.74183404 0.10318129 -0.04329306 -0.40146783 -0.015622086 -0.46446225 -0.78701884 -0.5376677
-0.14926113 0.041684452 0.2434921 0.033297617 -0.16270095 -0.27649418 -0.04867959 0.02912189
0.18050303 0.048032425 -0.021130519 -0.005082995 0.032628525 -0.10588655 -0.06878353 -0.035311934
-0.0038242047 -0.0017694858 -0.042428467 0.27491698 -0.20781127 -0.00936715 -0.0132137 0.22547399
00000000: d6e8 3dbf b650 d33d 1054 31bd 318d cdbe
00000010: c7f3 7fbc ffcd edbe 117a 49bf 97a4 09bf
00000020: e9d7 18be 51bd 2a3d fe55 793e 1563 083d
00000030: 149b 26be a590 8dbe 4064 47bd 0891 ee3c
00000040: c9d5 383e a6bd 443d e919 adbc 418f a6bb
00000050: 7da5 053d 0cdb d8bd 61de 8cbd 3fa3 10bd
00000060: 829f 7abb 17ee e7ba 79c9 2dbd ebc1 8c3e
00000070: 7acc 54be ad78 19bc 467e 58bc a7e2 663e

conv1.3.running_mean f4 [32]
0.49815843 0.44366404 0.60653967 0.9764245 0.10004117 0.58937967 0.5363108 0.624522
-0.0063948026 -0.008731049 0.87721974 0.013503676 -0.010222895 0.89924634 0.9656514 -0.01353289
-0.0054309024 0.97853005 0.002864993 0.77070385 -0.013265497 0.8914122 0.025918663 0.8347576
0.8757301 0.9736914 -0.016136508 0.073410876 0.31471008 -0.0021143276 0.040641233 0.07532653
00000000: 9f0e ff3e ef27 e33e 2f46 1b3f f5f6 793f
00000010: 63e2 cc3d 96e1 163f aa4b 093f ace0 1f3f
00000020: 7e8b d1bb ac0c 0fbc 7991 603f 863e 5d3c
00000030: ee7d 27bc 0235 663f ee34 773f 0eb9 5dbc
00000040: b6f5 b1bb f280 7a3f 9bc2 3b3b d94c 453f
00000050: 8757 59bc 9733 643f 6053 d43c adb2 553f
00000060: d92f 603f d743 793f b630 84bc 7158 963d
00000070: ae21 a13e 8890 0abb 6c77 263d cc44 9a3d

conv1.3.running_var f4 [32]
0.11099335 0.1794217 0.13443072 0.00926076 0.079357184 0.09291401 0.11226979 0.09155966
0.0016630176 0.009646263 0.095969476 0.021979375 0.004129538 0.07414057 0.02004203 1.21258245e-05
0.0022875199 0.008922268 0.010675024 0.1289491 0.0001359291 0.07547656 0.09616987 0.10395167
0.051778756 0.013056296 0.0035011023 0.062261544 0.08224153 0.008669291 0.09351126 0.04258603
00000000: 7b50 e33d 52ba 373e 35a8 093e 71ba 173c
00000010: 0586 a23d b349 be3d b4ed e53d a283 bb3d
00000020: 9cf9 d93a 5c0b 1e3c a58b c43d 170e b43c
00000030: 1351 873b 03d7 973d 2f2f a43c 0570 4b37
00000040: 37ea 153b b42e 123c 4ce6 2e3c 3c0b 043e
00000050: 3188 0e39 7493 9a3d b5f4 c43d 9de4 d43d
00000060: f615 543d 13ea 553c c072 653b f605 7f3d
00000070: 3f6e a83d a409 0e3c d582 bf3d b06e 2e3d

conv1.4.weight f4 [32, 32, 4, 1]
-2.2946548 0.48407307 0.27196178 -1.7099196 -0.4962243 -0.7557108 -0.48103592 -0.12879904
0.12914035 0.18668261 0.11309465 0.30426976 0.063128434 0.08290199 0.18093674 0.0763794
0.5456601 0.43738386 0.2779656 0.36642453 -0.90035397 -0.17542912 -0.31052446 -0.8160772
-2.6787333 0.26541424 0.019591779 -2.1825244 -1.0575362 -0.28220597 -0.3946038 -0.86701363
-0.49678445 -0.41391188 -0.20844728 -0.13224918 0.3524936 0.04740424 -0.1375846 -0.1779796
0.16776335 0.13690452 0.018635781 0.17194322 0.17430423 0.07019591 0.043612845 0.24835368
0.1900838 0.27750996 0.24106927 -0.11739077 0.26255795 0.3046873 0.26865876 0.21999058
0.03205996 -0.11929892 -0.13321793 -0.14999673 -0.1297583 -0.16553754 -0.40332183 -0.17892459
-0.57330596 -0.013627662 -0.29759604 -0.55399865 0.06135396 -0.060395077 -0.0907441 0.13977428
-0.18190464 -0.118717134 0.051761355 0.08878151 -0.18076688 -0.08801721 -0.10461836 -0.2766073
0.3080924 0.26984692 0.29443988 0.16978756 0.28602004 0.30211243 0.35658878 0.44742143
-0.5106497 -0.28894156 -0.21536046 -0.13153128 -0.15902247 0.22787951 0.24142711 0.14550571
0.034558743 0.05042015 -0.0874462 -0.122970864 -0.040295362 -0.11781409 -0.118241 -0.09009617
-0.3593954 -0.2759824 -0.24332899 -0.41475537 1.3189075 0.7103971 0.55016315 1.005893
0.402746 0.5088709 0.42980552 0.5308205 0.27187413 0.019255886 -0.15394457 0.13514933
0.2366425 0.15247808 0.3553388 0.29081097 0.23645242 0.21513537 0.09920018 0.14102603
0.501593 -0.20206511 -0.11702893 1.0497434 -1.0011256 -1.2061973 -0.7872867 -1.1813334
-0.11136425 -0.01077383 -0.13296928 -0.32604745 0.17356487 0.09476875 0.18563768 0.25932723
0.07506977 -0.04548921 -0.026073433 -0.09541397 -0.21648906 -0.36708972 -0.35938108 0.30317396
0.26069668 -0.24271524 -0.18075237 0.8564292 -0.33501655 -0.4224572 -0.5097939 0.12086905
0.95553005 0.7473214 0.63401526 0.7122411 -0.067656234 -0.20655984 -0.31477505 -0.39711297
-1.019287 -1.011416 -0.9913978 -1.0963855 -0.4727 -0.53336245 -0.56562704 -0.62303126
0.7474443 0.28619426 0.18100601 0.2829215 -0.35917872 -0.29775035 -0.40590084 -0.37929526
0.10794983 0.28463832 0.25336912 0.14195314 0.2294062 0.33513775 0.15492792 0.37376347
-0.72093534 -1.0330209 -0.574642 -0.2912669 -0.09531974 -0.16091737 -0.0978269 -0.14595844
-0.015041739 0.0122387465 0.032586332 -0.12447779 -0.039631076 -0.017504545 0.11091503 0.16832498
-0.20565474 -0.071218885 -0.14484434 0.15093336 -0.3541924 -0.34420726 -0.34127522 -0.3433995
1.5656946 1.4892204 1.5341868 1.4792857 0.15674527 0.120521836 0.16109034 0.22812629
0.14413196 0.079166226 0.13046142 0.1835255 0.157809 0.09353244 0.059481498 0.066340975
0.7368843 0.52497303 0.33592507 0.21669625 -0.44226873 -0.6380072 -0.34352 -0.65645033
-0.6992101 -0.74034566 -0.5340081 -0.36260813 0.20022942 0.20798954 0.19587773 -0.14048228
0.4178542 0.4135455 0.3800788 0.26491165 0.6903328 0.5901943 0.53663945 0.6571492
00000000: a0db 12c0 6dd8 f73e 933e 8b3e a5de dabf
00000010: 1d11 febe 4376 41bf 574a f6be e5e3 03be
00000020: 5e3d 043e ba29 3f3e 2b9e e73d 3fc9 9b3e
00000030: 7b49 813d 85c8 a93d 7b47 393e ce6c 9c3d
00000040: 61b0 0b3f c7f0 df3e 8251 8e3e ff9b bb3e
00000050: 997d 66bf b1a3 33be 10fd 9ebe 6fea 50bf
00000060: 5e70 2bc0 60e4 873e f07e a03c 7bae 0bc0
00000070: 595d 87bf 4d7d 90be 8209 cabe 9bf4 5dbf
00000080: 885a febe 42ec d3be 3473 55be 546c 07be
00000090: 0b7a b43e f32a 423d fae2 0cbe 4940 36be
000000a0: 28ca 2b3e b330 0c3e 11aa 983c e211 303e
000000b0: cf7c 323e e0c2 8f3d 62a3 323d 6d50 7e3e
000000c0: 54a5 423e c915 8e3e ddda 763e 926a f0bd
000000d0: ff6d 863e f9ff 9b3e a48d 893e 3645 613e
000000e0: 4e51 033d fe52 f4bd 486a 08be be98 19be
000000f0: 5cdf 04be ac82 29be 3380 cebe 0238 37be
00000100: 2ec4 12bf 8f46 5fbc 825e 98be dbd2 0dbf
00000110: 4a4e 7b3d d460 77bd 0bd8 b9bd fd20 0f3e
00000120: 3645 3abe f821 f3bd b703 543d 15d3 b53d
00000130: f41a 39be 5e42 b4bd 2742 d6bd 799f 8dbe
00000140: 49be 9d3e 6029 8a3e d3c0 963e cadc 2d3e
00000150: 3871 923e 7bae 9a3e ce92 b63e 6c14 e53e
00000160: f0b9 02bf 26f0 93be 7487 5cbe 23b0 06be
00000170: c9d6 22be 3f59 693e ab38 773e 73ff 143e
00000180: 788d 0d3d 5c85 4e3d fe16 b3bd 26d8 fbbd
00000190: c00c 25bd 8348 f1bd 5628 f2bd 5784 b8bd
000001a0: ad02 b8be 914d 8dbe 3c2b 79be d15a d4be
000001b0: f6d1 a83f 96dc 353f 7ed7 0c3f 1ac1 803f
000001c0: b934 ce3e 5d45 023f 780f dc3e dae3 073f
000001d0: 1633 8b3e 85be 9d3c a5a3 1dbe 9664 0a3e
000001e0: 6952 723e 3723 1c3e f8ee b53e 2de5 943e
000001f0: 9520 723e 724c 5c3e 7729 cb3d 2169 103e
00000200: 6668 003f 28ea 4ebe ddac efbd fe5d 863f
00000210: e224 80bf ac64 9abf 9f8b 49bf ef35 97bf
00000220: f112 e4bd b884 30bc 1929 08be b1ef a6be
00000230: fdba 313e 1e16 c23d ce17 3e3e 8ac6 843e
00000240: 2ebe 993d e552 3abd f497 d5bc 6668 c3bd
00000250: 4faf 5dbe 2ff3 bbbe cc00 b8be 9e39 9b3e
00000260: 097a 853e 588a 78be 2617 39be f23e 5b3f
00000270: 4a87 abbe 4f4c d8be da81 02bf 318a f73d
00000280: 9e9d 743f 7550 3f3f d34e 223f 6f55 363f
00000290: 5a8f 8abd 6c84 53be 322a a1be 6452 cbbe
000002a0: ff77 82bf 1476 81bf 3fcc 7dbf 5c56 8cbf
000002b0: bc05 f2be 718a 08bf efcc 10bf fa7e 1fbf
000002c0: 8258 3f3f 0e88 923e a459 393e 16db 903e
000002d0: 46e6 b7be bc72 98be 3cd2 cfbe fd32 c2be
000002e0: cd14 dd3d 1dbc 913e 99b9 813e 2a5c 113e
000002f0: 75e9 6a3e 2d97 ab3e 6da5 1e3e ed5d bf3e
00000300: 388f 38bf 073a 84bf bd1b 13bf ef20 95be
00000310: ff36 c3bd 86c7 24be 7859 c8bd 2176 15be
00000320: a071 76bc 0685 483c 3f79 053d 36ee febd
00000330: 3254 22bd b165 8fbc 6b27 e33d 625d 2c3e
00000340: 2897 52be 35db 91bd 1352 14be 468e 1a3e
00000350: b558 b5be ef3b b0be a0bb aebe 0fd2 afbe
00000360: ae68 c83f c69e be3f 3c60 c43f 3c59 bd3f
00000370: d581 203e 27d4 f63d def4 243e f099 693e
00000380: 5497 133e e721 a23d ae97 053e 1cee 3b3e
00000390: af98 213e f08d bf3d dfa2 733d c7dd 873d
000003a0: 73a4 3c3f a264 063f 5ffe ab3e 9fe5 5d3e
000003b0: 0c71 e2be 7154 23bf dae1 afbe 210d 28bf
000003c0: 6fff 32bf 4b87 3dbf c1b4 08bf c6a7 b9be
000003d0: f108 4d3e 36fb 543e 2c94 483e 96da 0fbe
000003e0: fcf0 d53e 3cbc d33e b099 c23e 80a2 873e
000003f0: a6b9 303f f916 173f 3461 093f ee3a 283f

conv1.4.bias f4 [32]
-0.4008737 0.38802034 -0.7448114 0.5997277 0.89287937 -0.54702777 -0.29934105 -0.4845953
0.43532816 0.95800245 -0.4087733 -0.32632855 -0.07807506 0.0897291 0.73545307 -1.0451359
0.10915092 -0.21303995 1.279265 -0.27966505 1.1200802 0.1296615 -1.5712439 0.21749069
-0.06549314 0.4635347 1.0312374 0.8372773 -0.101028524 -0.3428843 0.54404336 -0.0773069
00000000: 513f cdbe 9aaa c63e f6ab 3ebf c187 193f
00000010: be93 643f 030a 0cbf 3b43 99be e01c f8be
00000020: 55e3 de3e a63f 753f bc4a d1be 8914 a7be
00000030: d1e5 9fbd e4c3 b73d a746 3c3f 03c7 85bf
00000040: 848a df3d 2527 5abe f5be a33f 4230 8fbe
00000050: ca5e 8f3f fcc5 043e 851e c9bf e1b5 5e3e
00000060: 4421 86bd 6c54 ed3e 96ff 833f ce57 563f
00000070: 0be8 cebd 888e afbe 6d46 0b3f 1453 9ebd

conv1.6.weight f4 [32]
1.2737703 0.640429 1.9916117 0.80459887 0.94825727 1.7381783 1.3925626 2.0926368
0.5719068 0.69179815 1.8140688 0.40401247 1.3262055 1.7591646 1.0178096 -0.091001734
1.6114709 1.1831129 0.84471434 0.11133934 1.5250889 1.2814012 0.061500587 2.091334
1.1963977 0.00835534 0.50594765 0.1360287 1.8539457 0.9228039 0.21281932 1.6169136
00000000: e80a a33f 28f3 233f 22ed fe3f 31fa 4d3f
00000010: fdc0 723f a07c de3f 7e3f b23f c3ed 0540
00000020: 7c68 123f af19 313f 6833 e83f b9da ce3e
00000030: 1ac1 a93f 4e2c e13f 9647 823f 1e5f babd
00000040: ae44 ce3f 3e70 973f 333f 583f e105 e43d
00000050: 1d36 c33f f404 a43f 0ae8 7b3d 6bd8 0540
00000060: 8f23 993f d6e4 083c c985 013f 1c4b 0b3e
00000070: 184e ed3f e03c 6c3f 4fed 593e 06f7 ce3f

conv1.6.bias f4 [32]
0.7733 -0.18564628 -0.037281223 0.13705367 0.5074324 -0.51557595 0.5551561 -0.25735754
0.059081953 -0.20404571 -0.41912124 0.27688977 0.2920612 -0.4609886 0.51022893 -0.013773162
-0.24466969 0.07311295 0.4821037 0.110755816 0.3595226 0.6493158 -0.10480654 -0.27982333
0.638686 -0.019592458 -0.009143353 0.0017850787 -0.25734115 0.5803865 0.2526541 0.8335815
00000000: fdf6 453f 0f1a 3ebe 32b4 18bd cc57 0c3e
00000010: 17e7 013f c9fc 03bf b61e 0e3f 5ec4 83be
00000020: ebff 713d 5cf1 50be 0f97 d6be 7fc4 8d3e
00000030: 0c89 953e b306 ecbe 5d9e 023f d4a8 61bc
00000040: b18a 7abe 3ebc 953d 4cd6 f63e f2d3 e23d
00000050: 5913 b83e 8f39 263f d0a4 d6bd 0145 8fbe
00000060: ed80 233f 5d80 a0bc 01ce 15bc 4df9 e93a
00000070: 38c2 83be 3694 143f e15b 813e 9965 553f

conv1.6.running_mean f4 [32]
22.508692 3.138296 13.183072 8.617729 16.82473 3.7599537 13.198959 13.992289
10.6014385 8.741033 6.6648254 1.6405139 3.3496869 12.455428 21.59911 0.7338867
10.067144 2.5395777 13.357764 2.3437364 8.338255 20.552122 -0.103903666 13.008777
21.45568 15.080108 6.436315 11.400078 15.571296 12.031924 20.18514 22.559761
00000000: cd11 b441 d7d9 4840 dded 5241 38e2 0941
00000010: 0c99 8641 15a3 7040 f02e 5341 6ae0 5f41
00000020: 7e9f 2941 45db 0b41 4046 d540 5cfc d13f
00000030: 4561 5640 6f49 4741 faca ac41 00e0 3b3f
00000040: 0613 2141 7188 2240 67b9 5541 c7ff 1540
00000050: 7e69 0541 bf6a a441 72cb d4bd f323 5041
00000060: 3ca5 ab41 1f48 7141 4bf6 cd40 b866 3641
00000070: 0724 7941 c382 4041 2b7b a141 647a b441

conv1.6.running_var f4 [32]
1044.0658 32.167248 300.2059 67.92027 489.45468 29.146317 380.83597 295.90106
193.50673 64.76411 75.56867 18.688591 53.94507 200.60498 811.57416 23.198153
139.79347 25.288317 209.01736 67.45762 49.515385 824.1628 1.045398 204.60426
901.85535 312.23355 39.58485 111.50372 336.64713 280.59793 739.6485 1004.3062
00000000: 1b82 8244 43ab 0042 5b1a 9643 2ed7 8742
00000010: 33ba f443 a82b e941 016b be43 56f3 9343
00000020: b981 4143 3987 8142 2923 9742 3c82 9541
00000030: c0c7 5742 e09a 4843 bfe4 4a44 d195 b941
00000040: 21cb 0b43 794e ca41 7204 5143 4dea 8642
00000050: c10f 4642 6b0a 4e44 9acf 853f b19a 4c43
00000060: be76 6144 e51d 9c43 e356 1e42 e801 df42
00000070: d552 a843 894c 8c43 81e9 3844 9913 7b44

conv1.7.weight f4 [32, 32, 4, 1]
0.780723 0.004198596 -0.34178758 0.08482747 -0.29888538 -0.45428333 -0.45089737 -0.15222976
-0.13141343 -0.14662996 -0.20783237 0.0521314 -0.506836 -0.7761309 -0.9994631 -0.90874124
-0.56827354 -0.7054556 -0.53632826 0.030935831 0.22299619 0.2786494 0.5449406 0.854617
0.104220144 -0.4443907 -0.53535765 -0.24977568 0.1330037 0.10238434 -0.08770823 0.12390436
-0.25386298 -0.40299925 -0.538703 -0.5815571 -0.10423046 -0.4649595 -0.57522446 -0.45667964
-0.4477726 -0.070003994 -0.063912086 -0.2599529 -0.2742899 -0.7090957 -0.9322658 -1.1039983
-0.6732077 -0.6328977 -0.03195446 0.08129847 -0.19730386 0.056426615 0.09230836 0.55762124
-0.014345522 -0.6312248 -0.49697983 -0.15526591 0.65284884 0.5325626 0.6481981 0.5590233
-0.35622454 -0.18065636 -0.1588818 0.002792354 -0.9357136 -1.8109732 -1.2947352 -1.8079987
-0.242368 -0.9978315 -1.0278065 -0.8664519 0.02726638 -0.06470864 -0.22185913 -0.16785723
0.22304718 -0.27504048 -0.1695175 -0.15334004 1.6644737 0.6042421 0.28434223 0.5553695
0.41798028 0.162604 0.012597743 0.19202952 0.16156872 -0.010568499 -0.06957677 0.088795096
1.2603356 0.26620337 0.17189233 0.66122746 0.5543501 0.546235 0.53711784 0.5016231
-1.8300112 -1.4973269 -1.1992451 -1.5916808 -0.68951184 -0.85685545 -0.958577 -0.9514304
-0.017125435 0.007641866 -0.053213667 0.22572258 0.1336262 -0.8058421 -0.796096 -0.42882282
-0.44073644 -1.4593139 -1.5604757 -1.3861912 1.5925213 0.6391027 0.3897629 0.92676
-1.0062128 -0.9191067 -1.2887362 -0.78348637 0.7735824 0.28420502 0.25737667 0.84765214
0.9847125 0.23686102 0.53812176 1.2295328 -0.43115112 -0.4758827 -0.7389958 -0.47693136
0.11266156 -0.6970511 -0.6537735 -0.48154432 0.09607985 -0.27109972 -0.39139023 0.75573456
-0.6781617 -0.5722589 -1.1171932 -0.38626546 1.071492 -0.24505016 -0.16983329 0.9810483
-0.049749162 -0.1860779 -0.49312437 -0.32471207 -0.21370484 0.15312229 0.004408214 0.11866498
0.7057576 -0.8167191 -0.63514256 -0.30805838 -0.30538172 -0.09733737 -0.5540112 -0.0416752
-0.054997437 -0.54835474 -0.21633048 -1.097165 0.17088795 -0.21653788 -0.115473755 0.7192628
-0.8834698 -1.0606607 -1.6417377 -0.5780511 -0.13642558 0.011512411 0.23885196 0.35142255
1.2363828 0.1938515 0.25101313 1.0929949 -0.8572078 0.20928529 0.031297006 0.4381918
-0.51773775 -0.52885187 -1.1390027 -0.5852512 -0.31159046 -0.4502347 -0.55702823 -0.44634923
-1.7471248 -0.19887586 -0.01672214 -1.0795305 -0.7196173 -0.71439755 -0.99238074 -0.42032355
-0.20181048 -0.21657713 0.053114116 0.33989128 1.1628367 -0.374107 -0.30785763 0.5949406
-0.6146145 -0.85592395 -1.1565886 -0.47552648 -0.46891996 -0.1725226 -0.04604225 0.059049968
0.4322026 -0.032749474 0.3233765 -0.77062094 -0.012374372 0.19756854 -0.25095528 -0.040903028
0.7615145 -0.17534173 0.07865048 0.9322628 -0.62285095 -0.7076318 -1.3164515 -0.16263857
-0.32570496 -0.15198097 -0.5355365 0.52580404 -0.5807792 -0.61868477 -0.7049651 -0.28539398
00000000: 76dd 473f 6094 893b c8fe aebe 06ba ad3d
00000010: 8107 99be d397 e8be 05dc e6be 1ee2 1bbe
00000020: 3e91 06be 2a26 16be 02d2 54be bc87 553d
00000030: 01c0 01bf 84b0 46bf d0dc 7fbf 44a3 68bf
00000040: 607a 11bf bd98 34bf cf4c 09bf 246d fd3c
00000050: 1d59 643e 22ab 8e3e 3a81 0b3f 2ec8 5a3f
00000060: 5f71 d53d 2e87 e3be 330d 09bf 32c5 7fbe
00000070: 1f32 083e e1ae d13d 5fa0 b3bd 92c1 fd3d
00000080: 54fa 81be eb55 cebe 71e8 09bf ede0 14bf
00000090: c876 d5bd 2c0f eebe e941 13bf ead1 e9be
000000a0: 7342 e5be 415e 8fbd 57e4 82bd 8c18 85be
000000b0: ba6f 8cbe 4c87 35bf f9a8 6ebf d14f 8dbf
000000c0: 5757 2cbf 9505 22bf aee2 02bd d07f a63d
000000d0: 060a 4abe 981f 673d 2a0c bd3d 44c0 0e3f
000000e0: 7b09 6bbc f397 21bf 2474 febe 07fe 1ebe
000000f0: 1a21 273f 0656 083f 50f0 253f 271c 0f3f
00000100: 1063 b6be fbfd 38be e9b1 22be edff 363b
00000110: ed8a 6fbf f8cd e7bf e2b9 a5bf 806c e7bf
00000120: 512f 78be e371 7fbf 2a8f 83bf cbcf 5dbf
00000130: be5d df3c f785 84bd 0a2f 63be c4e2 2bbe
00000140: 7b66 643e 1bd2 8cbe ff95 2dbe 2c05 1dbe
00000150: 790d d53f 9caf 1a3f 4e95 913e b22c 0e3f
00000160: 8301 d63e aa81 263e c466 4e3c 63a3 443e
00000170: 4572 253e 7f27 2dbc 447e 8ebd 34da b53d
00000180: ad52 a13f cf4b 883e 8b04 303e 3446 293f
00000190: e3e9 0d3f 0fd6 0b3f 8e80 093f 5f6a 003f
000001a0: cf3d eabf 68a8 bfbf dd80 99bf 32bc cbbf
000001b0: d983 30bf e15a 5bbf 4d65 75bf f190 73bf
000001c0: a44a 8cbc 9e68 fa3b 93f6 59bd d223 673e
000001d0: 4ed5 083e ab4b 4ebf f3cc 4bbf aa8e dbbe
000001e0: 35a8 e1be ccca babf abbd c7bf b76e b1bf
000001f0: bdd7 cb3f 3c9c 233f 018f c73e 2540 6d3f
00000200: 95cb 80bf 944a 6bbf 4ff5 a4bf 9092 48bf
00000210: 7f09 463f 5283 913e e0c6 833e bbff 583f
00000220: 1e16 7c3f b28b 723e 59c2 093f 5561 9d3f
00000230: d7bf dcbe e6a6 f3be d42e 3dbf 5930 f4be
00000240: 1bbb e63d f171 32bf b35d 27bf fa8c f6be
00000250: 83c5 c43d 95cd 8abe 4d64 c8be d277 413f
00000260: 019c 2dbf 8f7f 12bf 3000 8fbf 96c4 c5be
00000270: a626 893f 6eee 7abe c7e8 2dbe fb25 7b3f
00000280: c7c5 4bbd 348b 3ebe cc7a fcbe a940 a6be
00000290: 71d5 5abe 17cc 1c3e c772 903b a006 f33d
000002a0: 88ac 343f 8114 51bf b498 22bf d4b9 9dbe
000002b0: fe5a 9cbe d158 c7bd aed3 0dbf 9db3 2abd
000002c0: fe44 61bd fa60 0cbf bd85 5dbe e76f 8cbf
000002d0: 40fd 2e3e 1bbc 5dbe 817d ecbd 9b21 383f
000002e0: 142b 62bf bbc3 87bf 7624 d2bf 28fb 13bf
000002f0: 26b3 0bbe 8d9e 3c3c 9c95 743e a8ed b33e
00000300: cb41 9e3f 0281 463e cb84 803e 42e7 8b3f
00000310: f871 5bbf e24e 563e 4a31 003d ad5a e03e
00000320: 768a 04bf d662 07bf d7ca 91bf 06d3 15bf
00000330: c988 9fbe 2a85 e6be 6799 0ebf e387 e4be
00000340: c9a1 dfbf 1da6 4bbe dffc 88bc 0e2e 8abf
00000350: d738 38bf c2e2 36bf aa0c 7ebf a634 d7be
00000360: 68a7 4ebe 65c6 5dbe 308e 593d 3b06 ae3e
00000370: d5d7 943f f48a bfbe 849f 9dbe 074e 183f
00000380: 6057 1dbf d51d 5bbf 180b 94bf 3578 f3be
00000390: 4716 f0be c4a9 30be cc96 3cbd 61de 713d
000003a0: a949 dd3e 5024 06bd 9b91 a53e 6a47 45bf
000003b0: e1bd 4abc 684f 4a3e 367d 80be ef89 27bd
000003c0: 9df2 423f c88c 33be 8113 a13d c6a8 6e3f
000003d0: 2973 1fbf 5c27 35bf 7c81 a8bf ba8a 26be
000003e0: cdc2 a6be e6a0 1bbe ec18 09bf 189b 063f
000003f0: f2ad 14bf 2062 1ebf 9878 34bf 291f 92be

conv1.7.bias f4 [32]
-2.4477448 0.34561893 -0.5805568 0.3862211 0.55438477 -0.15801741 -0.8305378 -0.1461022
0.13964288 0.89958125 1.3637997 0.49142778 0.92358303 0.7419167 -0.8166151 -0.4335164
0.048030786 0.64799225 0.6430654 1.195144 -0.09358143 -0.2128058 -0.3398387 0.26823717
-0.08641019 -0.8605235 -0.9431628 -0.8999472 -0.49087763 -1.1325221 -0.49201432 -0.5317952
00000000: daa7 1cc0 f7f4 b03e 5f9f 14bf c6be c53e
00000010: 29ec 0d3f 51cf 21be 209e 54bf d19b 15be
00000020: 8bfe 0e3e f54a 663f fd90 ae3f 6c9c fb3e
00000030: f06f 6c3f 41ee 3d3f b00d 51bf ddf5 ddbe
00000040: eebb 443d d2e2 253f ef9f 243f 7bfa 983f
00000050: 9fa7 bfbd c3e9 59be 57ff adbe 6256 893e
00000060: d3f7 b0bd 454b 5cbf 1e73 71bf f162 66bf
00000070: 5054 fbbe 7cf6 90bf 4de9 fbbe bb23 08bf

conv1.9.weight f4 [32]
0.013436728 -0.013505282 0.009309977 0.061748613 -0.007250879 0.081076615 0.14611621 0.14482534
0.26657113 0.011090922 0.121537045 0.011457421 -0.016616179 0.073056065 0.024894997 -0.17341909
-0.02506301 0.17282428 0.22171928 0.13208331 0.033049427 0.032590736 0.036770217 0.034836575
0.006991255 0.2054082 -0.005977728 0.04821616 0.03339642 -0.006457547 0.14747502 -0.037022196
00000000: b925 5c3c 4245 5dbc e088 183c 1dec 7c3d
00000010: c898 edbb 7f0b a63d 7d9f 153e 184d 143e
00000020: 037c 883e b3b6 353c 6ae8 f83d e8b7 3b3c
00000030: a71e 88bc 6b9e 953d 98f0 cb3c c694 31be
00000040: f150 cdbc d9f8 303e 610a 633e d940 073e
00000050: d65e 073d dd7d 053d 5e9c 163d ccb0 0e3d
00000060: e616 e53b 8756 523e d1e0 c3bb 4f7e 453d
00000070: afca 083d d599 d3bb b103 173e 96a4 17bd

conv1.9.bias f4 [32]
0.06526539 0.004463025 0.012276442 0.20908177 0.003600753 -0.0584614 -0.028470062 -0.03060981
-0.16561234 -0.004678657 0.09925632 -0.017622575 -0.007333519 0.114807375 -0.049217094 -0.05320784
-0.018384904 -0.27843514 -0.029418565 -0.05526463 -0.021931445 -0.046289317 -0.09104874 -0.018420806
-0.08047847 -0.4532668 -0.03557352 -0.09040173 -0.02844608 -0.010258459 0.037745565 -0.011016488
00000000: dca9 853d 913e 923b 2123 493c 8819 563e
00000010: 9cfa 6b3b 3975 6fbd 0c3a e9bc 6dc1 fabc
00000020: 4896 29be 6b4f 99bb e646 cb3d 385d 90bc
00000030: 044e f0bb 2120 eb3d dd97 49bd 77f0 59bd
00000040: f09b 96bc 0d8f 8ebe 34ff f0bc 2a5d 62bd
00000050: 93a9 b3bc de99 3dbd c377 babd 3be7 96bc
00000060: e5d1 a4bd 9612 e8be 8ab5 11bd 8b24 b9bd
00000070: c107 e9bc 1813 28bc 189b 1a3d 807e 34bc

conv1.9.running_mean f4 [32]
1.6607444 10.529185 1.5723239 7.027371 6.539978 14.784812 2.2248664 8.28674
34.25989 20.966015 26.078165 18.51587 20.231266 16.421558 7.623726 3.3356173
31.789436 10.51103 26.555737 21.004948 11.098648 15.015958 23.359772 30.977654
18.937862 12.440498 10.815463 9.912379 12.061121 12.481415 5.874527 29.850044
00000000: 4693 d43f 8b77 2841 e941 c93f 39e0 e040
00000010: 8047 d140 978e 6c41 3664 0e40 7d96 0441
00000020: 210a 0942 66ba a741 15a0 d041 8020 9441
00000030: a2d9 a141 5a5f 8341 90f5 f340 c17a 5540
00000040: c450 fe41 2e2d 2841 2672 d441 220a a841
00000050: 1094 3141 5d41 7041 d0e0 ba41 3cd2 f741
00000060: be80 9741 480c 4741 230c 2d41 1b99 1e41
00000070: 5afa 4041 e0b3 4741 20fc bb40 e4cc ee41

conv1.9.running_var f4 [32]
7.605515 251.8294 10.118972 56.663513 95.8139 246.3723 54.888824 166.66116
1534.7639 434.12735 769.28394 437.95325 336.47586 300.83932 164.24852 48.380108
1346.5334 228.17531 892.67615 552.7203 294.59793 566.08453 671.29376 1348.5011
854.99054 412.35834 322.83994 337.41733 370.78647 451.6369 103.56462 2084.8203
00000000: 6160 f340 54d4 7b43 4fe7 2141 70a7 6242
00000010: b8a0 bf42 4f5f 7643 288e 5b42 42a9 2643
00000020: 72d8 bf44 4d10 d943 2c52 4044 04fa da43
00000030: e93c a843 6f6b 9643 9f3f 2443 3b85 4142
00000040: 1251 a844 e12c 6443 462b 5f44 192e 0a44
00000050: 894c 9343 6985 0d44 cdd2 2744 0990 a844
00000060: 65bf 5544 de2d ce43 836b a143 6bb5 a843
00000070: ab64 b943 86d1 e143 1621 cf42 204d 0245

conv2.0.weight f4 [32, 32, 1, 2]
0.15698212 0.06079684 0.06706728 0.0019787303 -0.16012803 0.022313414 -0.2697033 -0.09322331
-0.020100249 0.06388155 0.20302597 0.2463127 -0.19209729 0.18871489 0.5782984 0.030149072
-0.06849418 0.004963563 0.10524124 -0.10150798 -0.66309386 -0.37638515 0.02986133 0.03462273
0.08359008 0.0593958 -0.29002702 -0.064946756 0.061094664 -0.035593763 0.3534054 -0.12414051
-0.011277679 -0.013631914 1.4124777 0.17421055 -0.30021417 -0.021984471 0.00026173305 0.064366914
0.56101507 -0.09133441 1.1448076 -0.07644781 0.25412127 0.018318309 -0.1967642 0.047328316
0.6088614 0.014332007 1.9765533 -0.009272518 0.13034025 0.021071311 0.116234675 0.023925068
0.52653295 -0.017753277 0.05440431 0.022441188 0.22286634 0.14122024 0.25164083 -0.056734346
0.7940599 -0.19941144 0.64322317 0.63170767 -0.16494279 0.94676834 -0.7585331 -0.19021784
-0.5561581 0.9454901 1.4838967 0.6406436 -0.6436091 0.4344946 0.51330507 0.7828426
0.3121168 0.23806112 1.0576826 0.6207346 0.25765598 -0.82044524 0.17502047 -0.18991618
0.46841493 0.07906755 0.17786647 -0.3468705 -0.1918112 -0.5109534 0.18765754 0.121136375
0.586643 0.8956249 0.21988164 2.3893905 0.55060124 0.07617607 0.55141187 0.33178395
0.6136231 1.4691987 0.52073514 1.5820749 0.36986148 0.36335605 -0.06355307 -0.59189683
0.8646426 1.1431502 0.3437991 1.7383026 1.1069192 0.62768376 -0.103652164 0.33609694
0.24756977 1.4967536 0.6220895 1.1317352 0.11638699 -0.015758175 0.8611221 1.0089294
0.26118296 0.3238046 -0.3205648 0.07245731 -0.8456088 -0.38450202 1.3924925 1.6665033
-0.46204636 -0.16875483 -1.61147 -0.98845416 0.118921615 -0.1339824 -0.5377681 -0.045595713
-1.1369356 -0.5463003 -0.8796828 -0.5529247 0.31270236 0.55514795 -0.18901752 -0.36521965
-0.04156303 -0.4938874 0.23834606 0.005366405 -0.016769968 -0.77280915 -0.5881197 0.31899327
-1.2086893 -0.24512208 -1.2433326 -0.5677717 -0.93520325 -0.16538635 -1.3627102 -0.7823295
-1.7810408 -1.1461961 -1.1642733 -0.19208789 -1.7784644 -1.1927367 0.26433596 0.4463366
-2.5278175 -1.7650225 -2.2331226 -0.618804 -0.92033714 -0.44067606 -0.5994574 -0.9105831
-0.8081641 -0.15485719 0.48047528 0.080448866 -0.16878927 -0.8741235 -2.9038684 -1.4724805
-0.11180234 -0.16402833 -0.013236655 0.032296237 -0.1922716 -0.015810687 -0.122101374 0.2794876
-0.002605402 -0.09216123 -0.18854134 0.07527613 0.58222836 -0.41643068 -0.52657074 -0.15653013
1.0383873 -0.06836642 -0.10391074 0.042144015 1.8796377 -0.0806619 0.012601802 -0.013360103
-0.053271916 0.045172647 1.3465652 0.037230946 0.06618355 0.0187769 0.64076203 0.011024793
0.012665431 0.051185083 -0.35445178 0.035421774 0.0017131536 0.19986816 1.129941 0.06272713
-0.009513136 -0.12971774 -0.19064026 0.020929696 0.30722788 0.07351666 0.18855712 -0.044489
-0.16848613 -0.05225881 -0.3402286 -0.092141144 -0.041232094 0.07900754 -0.29545903 -0.014908453
-0.00463391 -0.038400047 -0.03927531 -0.011319145 -0.5933328 -0.41662103 -0.019649886 -0.04185439
00000000: ecbf 203e 1b06 793d 925a 893d 96ad 013b
00000010: 9af8 23be 9fca b63c 8d16 8abe ddeb bebd
00000020: 47a9 a4bc 55d4 823d 0ae6 4f3e 6539 7c3e
00000030: 27b5 44be 7a3e 413e 5d0b 143f 30fb f63c
00000040: ad46 8cbd 62a5 a23b b888 d73d 6ae3 cfbd
00000050: 85c0 29bf 8eb5 c0be bf9f f43c 90d0 0d3d
00000060: 4731 ab3d 0349 733d 6c7e 94be ce02 85bd
00000070: 663e 7a3d c4ca 11bd 8df1 b43e 613d febd
00000080: 04c6 38bc 6458 5fbc 12cc b43f 4064 323e
00000090: acb5 99be c718 b4bc 3739 8939 cdd2 833d
000000a0: af9e 0f3f 890d bbbd 0e89 923f ab90 9cbd
000000b0: 2f1c 823e 4710 963c 8e7c 49be 56db 413d
000000c0: 57de 1b3f cbd0 6a3c b3ff fc3f c2eb 17bc
000000d0: ea77 053e be9d ac3c 720c ee3d 81fe c33c
000000e0: ddca 063f 526f 91bc 0ed7 5e3d 95d6 b73c
000000f0: 1337 643e 0a9c 103e 11d7 803e 4662 68bd
00000100: 8247 4b3f 8332 4cbe 46aa 243f 98b7 213f
00000110: c3e6 28be 695f 723f 3a2f 42bf 77c8 42be
00000120: 6160 0ebf a40b 723f 54f0 bd3f 3801 243f
00000130: 91c3 24bf 1476 de3e f667 033f 5f68 483f
00000140: c6cd 9f3e 4bc6 733e 2562 873f 76e8 1e3f
00000150: 7ceb 833e b308 52bf 9138 333e 6379 42be
00000160: 15d4 ef3e 2bee a13d a122 363e 0399 b1be
00000170: 286a 44be d8cd 02bf 4c29 403e 5916 f83d
00000180: 3c2e 163f ac47 653f a728 613e c6eb 1840
00000190: 34f4 0c3f 3302 9c3d 5429 0d3f 96df a93e
000001a0: 6716 1d3f b40e bc3f e64e 053f 6e81 ca3f
000001b0: 7c5e bd3e ce09 ba3e 1d28 82bd 8d86 17bf
000001c0: 3859 5d3f bf52 923f 7006 b03e b380 de3f
000001d0: 87af 8d3f e2af 203f 9647 d4bd e614 ac3e
000001e0: ee82 7d3e 9f95 bf3f 4241 1f3f b3dc 903f
000001f0: 4d5c ee3d 4a17 81bc 7f72 5c3f 9924 813f
00000200: c6b9 853e b7c9 a53e 1221 a4be 8064 943d
00000210: d179 58bf 73dd c4be 323d b23f fb4f d53f
00000220: 5791 ecbe 11ce 2cbe a644 cebf 550b 7dbf
00000230: 2d8d f33d af32 09be 2cab 09bf 92c2 3abd
00000240: 1b87 91bf 56da 0bbf e432 61bf 798c 0dbf
00000250: 861a a03e 2d1e 0e3f cf8d 41be 12fe babe
00000260: ff3d 2abd cfde fcbe fd10 743e abd8 af3b
00000270: 2c61 89bc d2d6 45bf 038f 16bf 1653 a33e
00000280: 55b6 9abf 4801 7bbe 8625 9fbf 7c59 11bf
00000290: 7b69 6fbf 0a5b 29be 4a6d aebf bf46 48bf
000002a0: 25f9 e3bf 8eb6 92bf e806 95bf b0b2 44be
000002b0: b9a4 e3bf 99ab 98bf 0b57 873e 3b86 e43e
000002c0: c3c7 21c0 42ec e1bf 7beb 0ec0 f069 1ebf
000002d0: 379b 6bbf 4ba0 e1be 0a76 19bf f91b 69bf
000002e0: d8e3 4ebf e292 1ebe db00 f63e 60c2 a43d
000002f0: 18d7 2cbe 8fc6 5fbf fbd8 39c0 3e7a bcbf
00000300: a0f8 e4bd 0bf7 27be 8ede 58bc 0f49 043d
00000310: d9e2 44be 6a85 81bc 4910 fabd 0019 8f3e
00000320: 64bf 2abb 07bf bcbd fb10 41be 5f2a 9a3d
00000330: eb0c 153f 6736 d5be 57cd 06bf 6f49 20be
00000340: e0e9 843f b203 8cbd 27cf d4bd 349f 2c3d
00000350: f897 f03f 1132 a5bd ca77 4e3c 55e4 5abc
00000360: a733 5abd f406 393d 405c ac3f 7a7f 183d
00000370: 3e8b 873d 03d2 993c fb08 243f 55a1 343c
00000380: ab82 4f3c 73a7 513d b47a b5be 6c16 113d
00000390: e58b e03a 3daa 4c3e e8a1 903f 1577 803d
000003a0: fcdc 1bbc bad4 04be 3337 43be c174 ab3c
000003b0: f94c 9d3e e78f 963d 1e15 413e 193a 36bd
000003c0: a187 2cbe 550d 56bd 7132 aebe 7fb4 bcbd
000003d0: fce2 28bd b5ce a13d 6846 97be 9642 74bc
000003e0: 0ed8 97bb 5e49 1dbd 26df 20bd ef73 39bc
000003f0: a9e4 17bf 5a4f d5be ccf8 a0bc 826f 2bbd

conv2.0.bias f4 [32]
-1.079887 -1.4890332 2.592137 0.47618648 1.7621851 -0.11965635 1.4676136 -2.2927523
0.9562691 0.16482343 2.1137748 -1.4092274 1.7439513 0.064972505 -0.4290884 0.9797939
-0.09676163 0.06623215 -2.1507244 0.37709698 0.96604335 0.40869144 0.017683359 2.4349782
-1.5903403 3.6920488 1.1974179 0.5157292 1.176087 0.7667767 0.52276397 -1.2056184
00000000: bd39 8abf a498 bebf 93e5 2540 b7ce f33e
00000010: 488f e13f 630e f5bd c3da bb3f 74bc 12c0
00000020: 0dce 743f 79c7 283e 1648 0740 9061 b4bf
00000030: cc39 df3f 4e10 853d 7ab1 dbbe c6d3 7a3f
00000040: f62a c6bd b9a4 873d 78a5 09c0 db12 c13e
00000050: 9e4e 773f 0140 d13e b1dc 903c afd6 1b40
00000060: 4590 cbbf 874a 6c40 fd44 993f d406 043f
00000070: 058a 963f 7a4b 443f dcd3 053f b451 9abf

conv2.2.weight f4 [32]
0.6122892 0.009257996 0.022985518 0.2215601 -0.039067797 0.17420684 0.029013973 -0.038543954
0.44777194 0.024913289 -0.037978563 0.017677294 0.11390818 0.18347628 0.02243551 -0.008412438
0.18650196 0.062955126 0.021667054 0.104210824 0.11647681 0.1597304 0.037139527 -0.02688297
0.06169584 -0.06353931 0.186644 0.34765097 0.08949406 0.033729415 0.23865138 0.015822407
00000000: fcbe 1c3f daae 173c 204c bc3c a7e0 623e
00000010: 8e05 20bd 4763 323e b6ae ed3c 44e0 1dbd
00000020: 5d42 e53e f416 cc3c 698f 1bbd f9cf 903c
00000030: b148 e93d 35e1 3b3e adca b73c 53d4 09bc
00000040: 5ffa 3e3e 9eee 803d 1b7f b13c 7c6c d53d
00000050: 658b ee3d 5e90 233e 9e1f 183d ad39 dcbc
00000060: c7b4 7c3d e620 82bd 9b1f 3f3e 4fff b13e
00000070: a948 b73d db27 0a3d 0761 743e fe9d 813c

conv2.2.bias f4 [32]
0.2562492 -0.06879025 -0.010223236 -0.013259429 -0.026098153 0.036558777 -0.017914103 -0.026905349
-0.2654377 -0.08467315 -0.014544333 -0.01388009 -0.03666781 0.0016811382 0.023138821 -0.010840678
0.055348754 0.024817755 0.025089534 -0.051012427 -0.07528397 -0.04494606 -0.0010344862 0.03297029
-0.0027255327 -0.035681833 -0.02125906 -0.20417877 -0.025610387 0.00058890623 -0.08989713 0.0016924707
00000000: 1833 833e e7e1 8cbd 5c7f 27bc 133e 59bc
00000010: cbcb d5bc a8be 153d 99c0 92bc 9b68 dcbc
00000020: 73e7 87be 1e69 adbd 5b4b 6ebc 5169 63bc
00000030: fc30 16bd a359 dc3a a08d bd3c 199d 31bc
00000040: 60b5 623d 9b4e cb3c 9188 cd3c 68f2 50bd
00000050: 7b2e 9abd 5c19 38bd 9997 87ba db0b 073d
00000060: da9e 32bb 1d27 12bd 7b27 aebc 3d14 51be
00000070: e0cc d1bc d460 1a3a fd1b b8bd e5d5 dd3a

conv2.2.running_mean f4 [32]
-0.9744667 -0.99147993 0.9999941 0.48975387 0.99995154 -0.4033969 0.97992563 -0.99997026
0.83185804 0.8748449 0.9999613 -0.9792382 0.9899253 0.3417092 -0.7792492 0.9813114
-0.27103707 -0.51956886 -0.99998087 0.34504268 0.82334405 0.76575404 0.024940938 0.99999285
-0.99176544 0.99999946 0.9487874 0.4210903 0.9881969 0.84655946 0.20337032 -0.9938495
00000000: a676 79bf a1d1 7dbf 9dff 7f3f 05c1 fa3e
00000010: d3fc 7f3f 0a8a cebe 68dc 7a3f 0dfe 7fbf
00000020: a6f4 543f d6f5 5f3f 77fd 7f3f 5baf 7abf
00000030: bf6b 7d3f 82f4 ae3e e07c 47bf 3937 7b3f
00000040: 5fc5 8abe 7702 05bf bffe 7fbf 6fa9 b03e
00000050: adc6 523f 7508 443f f050 cc3c 88ff 7f3f
00000060: 57e4 7dbf f7ff 7f3f bbe3 723f 2699 d73e
00000070: 79fa 7c3f 1fb8 583f 4f40 503e ec6c 7ebf

conv2.2.running_var f4 [32]
0.0034248224 0.0012373517 1.0772813e-10 0.19629069 1.41662e-08 0.21474783 0.0018549141 2.4928712e-09
0.050686784 0.03526673 8.484071e-09 0.0019962823 0.0006528776 0.32743284 0.11922357 0.003637427
0.3061873 0.28957835 2.2907118e-09 0.30019373 0.082735814 0.11573988 0.44349304 1.4272572e-10
0.00040977975 6.130768e-14 0.0046130433 0.326938 0.000968298 0.05338832 0.14487934 0.0006356346
00000000: fc72 603b a22e a23a 8ce5 ec2e 6d00 493e
00000010: 9b5f 7332 dbe6 5b3e 9720 f33a 0e4f 2b31
00000020: f29c 4f3d d973 103d 57c1 1132 0fd4 023b
00000030: e025 2b3a 47a5 a73e 7d2b f43d e661 6e3b
00000040: 95c4 9c3e 9d43 943e a16a 1d31 feb2 993e
00000050: 6571 a93d 0809 ed3d 8511 e33e b8ed 1c2f
00000060: b5d7 d639 790d 8a29 0329 973b 6b64 a73e
00000070: 61d5 7d3a b6ad 5a3d 405b 143e b7a0 263a

conv2.3.weight f4 [32, 32, 4, 1]
-0.6276555 -0.32221302 -0.30751345 -0.1326704 0.700269 0.27044153 -0.05923516 0.046143964
0.05368039 0.17315908 0.27390996 -0.06518159 1.2740284 0.6520837 0.55490226 0.4539951
1.1478336 1.066773 1.0160456 0.94704145 -1.2104037 -0.19330344 -0.37597135 -0.1950449
1.1231774 0.82573813 0.62475944 0.26211846 1.7598826 1.5219339 1.3161479 1.0020096
-1.3091457 -0.935183 -0.32851934 -0.1943527 -0.7187773 -0.64498526 -0.48125526 -0.68795437
-0.1930786 -0.38469946 -0.5887157 -0.6942569 1.3386412 0.82569516 0.6768999 0.05813713
-0.7878945 -0.14615692 0.37614927 0.70576525 -0.1952946 -0.22466075 0.108506404 -0.08338261
0.08827534 0.0507326 0.2125018 0.16266495 -0.17798418 0.07480064 0.09947214 -0.1370548
-0.16814248 0.28920072 0.13726771 0.04308029 -1.8880715 -1.3508233 -1.0279028 -0.7923849
0.59694666 0.27054575 0.12517346 0.3531753 -1.9715571 -1.3661699 -0.93736154 -0.49748734
-0.7748715 -0.56513304 -0.49133533 0.020431226 0.25741202 0.065497 0.053451672 0.23403509
-0.46959412 0.0832875 -0.15640898 0.084610604 0.24917698 0.20798951 0.12448379 -0.19253972
-0.72966486 -0.6712427 -0.7151332 -0.6090047 -0.08324068 -0.3338421 0.043232895 -0.18161082
-0.022994582 0.27225828 0.17838094 -0.2927268 -0.841866 -0.23056307 -0.44010907 0.082056664
-1.7750015 -1.3856869 -1.3785152 -0.38553685 -0.38313586 0.023765398 -0.1987114 0.109862916
-1.0168028 -0.34859172 -0.3177034 0.03006814 0.2910201 0.42707837 0.2600813 0.46286592
0.7558579 0.9604654 0.41949466 0.023071527 -0.6707 -0.523139 -0.14733212 -0.25796506
0.041892238 -0.28613436 -0.46099266 -0.07005239 -0.5195489 -0.18468048 0.35285905 0.5863889
0.17722304 0.05078193 0.21489254 0.23008466 0.76202756 0.6048746 0.60336334 0.51675165
-0.27615023 -0.38700783 0.090649046 0.5012092 -0.09118378 0.22864915 -0.0017349187 0.09626085
0.25011602 0.10056996 0.17473483 -0.009302504 -0.16219854 -0.23371524 -0.47789386 -0.4103918
0.46646062 0.23790416 0.31568557 0.30835658 -0.14868401 -0.34258974 -0.40201333 -0.44001716
0.21177627 -0.12716976 0.30123967 0.29516977 0.838554 0.6058088 1.1865159 1.5018982
0.45530194 0.34450635 0.21636319 -0.634994 -0.26403856 -0.43900988 -0.19383329 0.101644784
0.016662192 -0.0932734 -0.27322096 -0.95699364 -0.104168035 -0.06936404 -0.362693 -0.31284866
0.3673441 0.5667901 0.40711278 0.2532471 0.27395356 0.03968095 -0.16281529 -0.27126992
-0.1278669 -0.36556327 -0.40433174 -0.37842545 0.08665081 -0.04557832 0.24581333 0.61473906
-0.5751092 -0.7754814 -0.9194821 -1.0515349 -0.28832605 -0.27211806 -0.36674693 -0.13545962
-0.13169912 -0.02010185 -0.40723133 -0.7389272 0.6841609 0.790503 0.5392384 0.98975587
-0.49866226 -0.8984649 -0.67184347 -0.48891458 -0.71270144 -0.7617559 -0.5771293 -1.0684285
0.11275683 -0.16310127 -0.04366417 0.3019755 0.19377163 -0.030547854 -0.30654064 -0.43976885
0.78795946 0.71002185 0.552224 0.7471435 0.6332165 0.9536929 0.50088215 0.09809856
00000000: 08ae 20bf 1bf9 a4be 6772 9dbe c0da 07be
00000010: d444 333f 5077 8a3e 91a0 72bd 7401 3d3d
00000020: f8df 5b3d 9d50 313e ed3d 8c3e ed7d 85bd
00000030: 5d13 a33f f5ee 263f 130e 0e3f 0c72 e83e
00000040: 36ec 923f 058c 883f c80d 823f 4f71 723f
00000050: 82ee 9abf 56f1 45be 517f c0be dab9 47be
00000060: 47c4 8f3f 9363 533f 3cf0 1f3f 6434 863e
00000070: d543 e13f bbce c23f 8977 a83f da41 803f
00000080: 1692 a7bf 2768 6fbf b033 a8be 6504 47be
00000090: ca01 38bf c11d 25bf 1767 f6be c71d 30bf
000000a0: 66b6 45be 54f7 c4be 12b6 16bf d2ba 31bf
000000b0: 9858 ab3f c260 533f 5049 2d3f 3321 6e3d
000000c0: 74b3 49bf 29aa 15be a396 c03e 08ad 343f
000000d0: 4ffb 47be 780d 66be 9b38 de3d 80c4 aabd
000000e0: b4c9 b43d fdcc 4f3d 129a 593e a491 263e
000000f0: 7c41 36be 1431 993d 0db8 cb3d 1858 0cbe
00000100: 8b2d 2cbe 1e12 943e e88f 0c3e f574 303d
00000110: 54ac f1bf c7e7 acbf 5292 83bf bdd9 4abf
00000120: 7fd1 183f f984 8a3e 792d 003e 65d3 b43e
00000130: fc5b fcbf a8de aebf edf6 6fbf a9b6 febe
00000140: fb5d 46bf 8fac 10bf 4e90 fbbe 635f a73c
00000150: 82cb 833e 4b23 863d 24f0 5a3d e5a6 6f3e
00000160: a46e f0be a392 aa3d ad29 20be 5348 ad3d
00000170: 4028 7f3e 34fb 543e 5bf1 fe3d 2229 45be
00000180: 51cb 3abf 90d6 2bbf f812 37bf bbe7 1bbf
00000190: 177a aabd 5aed aabe fa14 313d 30f8 39be
000001a0: 225f bcbc 7065 8b3e 7ea9 363e 4ae0 95be
000001b0: 8884 57bf ba18 6cbe fa55 e1be 530d a83d
000001c0: 4033 e3bf 305e b1bf 3073 b0bf 1665 c5be
000001d0: 622a c4be a7af c23c 007b 4bbe cfff e03d
000001e0: 9826 82bf 9d7a b2be 05aa a2be 7651 f63c
000001f0: 9600 953e 04aa da3e 6029 853e c3fc ec3e
00000200: e77f 413f 0fe1 753f 01c8 d63e 8000 bd3c
00000210: ffb2 2bbf 70ec 05bf 3bde 16be ff13 84be
00000220: 3297 2b3d 3480 92be 3b07 ecbe a177 8fbd
00000230: 2801 05bf e11c 3dbe f1a9 b43e 951d 163f
00000240: f579 353e b700 503d ca0c 5c3e 509b 6b3e
00000250: 3d14 433f 10d9 1a3f 0576 1a3f d649 043f
00000260: 9063 8dbe e425 c6be 35a6 b93d 3f4f 003f
00000270: 90be babd 0123 6a3e 3666 e3ba 6924 c53d
00000280: 350f 803e a0f7 cd3d b0ed 323e 8869 18bc
00000290: 6017 26be 0c53 6fbe 81ae f4be e01e d2be
000002a0: edd3 ee3e 269d 733e 8aa1 a13e eae0 9d3e
000002b0: 9f40 18be ec67 afbe b1d4 cdbe ee49 e1be
000002c0: e1db 583e ca38 02be 163c 9a3e 7e20 973e
000002d0: 7aab 563f 4916 1b3f c1df 973f 333e c03f
000002e0: 561d e93e 2363 b03e 508e 5d3e f78e 22bf
000002f0: 1030 87be e7c5 e0be 3c7c 46be 242b d03d
00000300: 267f 883c 2006 bfbd 9ee3 8bbe 89fd 74bf
00000310: 0d56 d5bd bc0e 8ebd e6b2 b9be b32d a0be
00000320: 8714 bc3e 2819 113f 1671 d03e 9ba9 813e
00000330: a443 8c3e 7e88 223d 0db9 26be e4e3 8abe
00000340: 8aef 02be 1c2b bbbe 9204 cfbe fbc0 c1be
00000350: fb75 b13d 55b0 3abd 7db6 7b3e 8a5f 1d3f
00000360: 5b3a 13bf f385 46bf 2e63 6bbf b298 86bf
00000370: 799f 93be 0f53 8bbe 41c6 bbbe edb5 0abe
00000380: 22dc 06be a3ac a4bc a080 d0be 552a 3dbf
00000390: 2b25 2f3f 685e 4a3f 870b 0a3f a460 7d3f
000003a0: a950 ffbe cc01 66bf effd 2bbf 0353 fabe
000003b0: 9a73 36bf 6f02 43bf bfbe 13bf 44c2 88bf
000003c0: 0eed e63d 0504 27be 33d9 32bd 889c 9a3e
000003d0: 126c 463e 7e3f fabc e5f2 9cbe 6229 e1be
000003e0: b6b7 493f fec3 353f 8d5e 0d3f cc44 3f3f
000003f0: 7a1a 223f 3825 743f d039 003f e6e7 c83d

conv2.3.bias f4 [32]
-0.7056697 1.2190773 -1.3771162 -0.8424716 0.80843395 -0.23562181 -0.9122805 -0.6308282
-0.86012244 1.2856952 0.050861523 0.21625747 -0.49527484 0.27090558 -1.00239 1.2956469
-0.3116989 0.7341642 -0.5145413 0.053342413 0.88079226 0.11760533 0.6780843 -0.15451333
-0.094556674 0.01759557 -0.93309957 0.19361663 0.5415931 -0.53712 -0.41114452 -0.11872379
00000000: c5a6 34bf ba0a 9c3f 5845 b0bf 38ac 57bf
00000010: 87f5 4e3f d846 71be 378b 69bf f57d 21bf
00000020: fc30 5cbf a991 a43f 2c54 503d 9972 5d3e
00000030: aa94 fdbe 23b4 8a3e 514e 80bf c2d7 a53f
00000040: 0097 9fbe 2ff2 3b3f fbb8 03bf 937d 5a3d
00000050: 9a7b 613f 10db f03d ef96 2d3f be38 1ebe
00000060: eea6 c1bd 9624 903c 9ddf 6ebf 7043 463e
00000070: d8a5 0a3f b280 09bf 8981 d2be 7525 f3bd

conv2.5.weight f4 [32]
-0.00082109316 0.042323682 0.13658369 0.0062554954 -0.011976321 0.19168882 0.054310445 -0.0033260055
0.16616704 0.010926866 0.08390969 0.008978627 0.3533169 0.0114502795 0.03591988 -0.0058056815
0.06964108 0.013019162 -0.023294603 -0.008969315 0.38145134 -0.041521855 0.11159879 0.016303306
0.3032342 -0.009692047 -0.011426983 0.0940381 0.052055266 -0.006908792 0.30612808 0.18769376
00000000: a13e 57ba 995b 2d3d 98dc 0b3e e6fa cc3b
00000010: 5538 44bc 134a 443e a174 5e3d 1df9 59bb
00000020: b127 2a3e 9906 333c d8d8 ab3d 171b 133c
00000030: f4e5 b43e f499 3b3c b920 133d 963d bebb
00000040: fc9f 8e3d 534e 553c 53d4 bebc 09f4 12bc
00000050: 974d c33e d212 2abd e88d e43d 838e 853c
00000060: 8341 9b3e 64cb 1ebc 3e38 3bbc 0c97 c03d
00000070: e737 553d 2663 e2bb d2bc 9c3e cb32 403e

conv2.5.bias f4 [32]
-0.0075886394 -0.028559668 -0.06875485 0.02198474 0.0031146677 0.08186577 0.039912216 0.010724563
0.13065141 0.005726568 0.101308174 -0.014259212 0.3724468 0.0096579585 -0.16296606 0.00034044537
-0.008042642 -0.019538399 0.015995644 0.020156864 0.005884609 -0.043722343 -0.049370445 0.011098603
0.0025691565 0.012269809 -0.013261101 -0.018740324 0.020362044 -0.02041174 0.1195853 -0.21946076
00000000: 1faa f8bb f7f5 e9bc 58cf 8cbd 5719 b43c
00000010: 741f 4c3b 3ea9 a73d fe7a 233d 14b6 2f3c
00000020: 7cc9 053e efa5 bb3b a97a cf3d 789f 69bc
00000030: 59b1 be3e 6a3c 1e3c 93e0 26be ce7d b239
00000040: 49c5 03bc fe0e a0bc 4c09 833c 0220 a53c
00000050: aed3 c03b 3316 33bd aa38 4abd ead6 353c
00000060: 4b5f 283b 4f07 493c 1745 59bc 4f85 99bc
00000070: 4dce a63c 8536 a7bc 23e9 f43d 52ba 60be

conv2.5.running_mean f4 [32]
-0.052985016 0.85305727 -0.9040145 -0.24069305 0.14656202 -0.18897237 -0.4363892 -0.05689877
-0.56837004 0.3428414 0.23550001 0.10465645 -0.18919633 -0.4246667 -0.2568332 0.32162055
0.14913116 0.16521299 -0.27279925 -0.015977621 0.457345 0.894655 0.038357552 0.11008748
-0.11974007 -0.45333353 -0.300801 0.23592547 0.3062732 0.22528994 -0.477527 0.43265435
00000000: d106 59bd f661 5a3f 7f6d 67bf 3d78 76be
00000010: 5b14 163e f981 41be 686e dfbe af0e 69bd
00000020: b380 11bf e888 af3e ea26 713e 1f56 d63d
00000030: afbc 41be ea6d d9be a47f 83be 73ab a43e
00000040: d7b5 183e 982d 293e 58ac 8bbe 80e3 82bc
00000050: 2029 ea3e 1c08 653f cf1c 1d3d 8b75 e13d
00000060: 483a f5bd 551b e8be 9702 9abe 7296 713e
00000070: d7cf 9c3e 68b2 663e 6b7e f4be df84 dd3e

conv2.5.running_var f4 [32]
0.78633165 0.08363812 0.08449138 0.60300165 0.5813962 0.50854427 0.58315754 0.7617818
0.21286486 0.63482016 0.5723865 0.7860918 0.47055888 0.37769675 0.44770354 0.6024562
0.44760275 0.641519 0.61111236 0.7418376 0.29710925 0.044346873 0.32241303 0.4620405
0.41032282 0.4600569 0.6811435 0.2133222 0.29991096 0.6538128 0.2113162 0.23247829
00000000: 084d 493f 764a ab3d d109 ad3d 515e 1a3f
00000010: 62d6 143f f52f 023f d049 153f 2204 433f
00000020: 3ff9 593e 9383 223f ec87 123f 503d 493f
00000030: 18ed f03e 7861 c13e 6639 e53e 923a 1a3f
00000040: 302c e53e 973a 243f dc71 1c3f 12e9 3d3f
00000050: b41e 983e 11a5 353d 5213 a53e 9390 ec3e
00000060: d515 d23e 948c eb3e 6c5f 2e3f 2371 5a3e
00000070: ee8d 993e 4760 273f 4663 583e ca0e 6e3e
