weights/deepLOB_PT/deepLOB_PT.pth (torch, 612857 bytes, 90 tensors)

conv1.0.weight f4 [32, 1, 1, 2]
0.076767206 -0.5381868 -0.26302364 0.5119514 -0.6358744 -0.5474385 -0.24018478 0.26590925
-0.45681602 0.06541985 0.18595988 0.6947705 -0.56841624 -0.3325029 0.04219407 0.64604956
0.5727851 0.66548723 -0.7030971 0.2945084 0.43866318 0.16911805 0.043841243 0.24689305
0.69637173 0.39177185 -0.6179849 0.27754962 -0.63398117 0.41809887 -0.43410993 0.14384705
0.12828946 -0.46833605 -0.14097339 0.24131644 -0.04962194 -0.5415947 0.4179321 -0.025460124
0.5257068 -0.66577965 -0.2877738 0.2570408 -0.39722005 -0.54269105 0.05570656 0.6316748
0.39421433 0.011639893 0.6075881 -0.4384502 0.08920771 0.7053377 0.43243843 0.38931042
-0.18932986 0.62319666 -0.014009953 0.056503832 0.11307728 0.30957216 -0.14763242 -0.4189239
00000000: 2038 9d3d 9cc6 09bf 09ab 86be 3f0f 033f
00000010: aac8 22bf ee24 0cbf 00f3 75be 4225 883e
00000020: cae3 e9be d8fa 853d 446c 3e3e 7bdc 313f
00000030: ba83 11bf d23d aabe b0d3 2c3d 8163 253f
00000040: 0ba2 123f 5f5d 2a3f 2cfe 33bf cec9 963e
00000050: 7698 e03e 482d 2d3e e092 333d 88d1 7c3e
00000060: 6b45 323f 5296 c83e 4234 1ebf fc1a 8e3e
00000070: 974c 22bf 0e11 d63e a843 debe a44c 133e
00000080: 505e 033e bec9 efbe 545b 10be a81b 773e
00000090: 6040 4bbd f3a5 0abf 32fb d53e c091 d0bc
000000a0: b994 063f 8970 2abf 1657 93be da9a 833e
000000b0: 6d60 cbbe cded 0abf 902c 643d 71b5 213f
000000c0: 76d6 c93e 40b5 3e3c e58a 1b3f 8b7c e0be
000000d0: 88b2 b63d 0391 343f 9268 dd3e b253 c73e
000000e0: b0df 41be d189 1f3f 008a 65bc 9070 673d
000000f0: 1095 e73d 3e80 9e3e f42c 17be 327d d6be

conv1.0.bias f4 [32]
-0.021980107 0.55458885 0.40636855 0.10964537 0.2508644 -0.34192297 0.5324748 0.7058596
-0.67717844 0.6926326 -0.12522274 -0.2624984 0.19882715 -0.69470876 -0.029744387 0.27834105
0.37047833 0.07885116 -0.29651335 -0.5112531 -0.38465852 -0.12051791 -0.2968663 -0.19828516
0.6474287 0.5191187 0.39732343 0.26283586 -0.1419431 -0.43977588 0.67585045 0.63357884
00000000: a00f b4bc 89f9 0d3f 8a0f d03e c08d e03d
00000010: 4c71 803e 8710 afbe 4550 083f 37b3 343f
00000020: 915b 2dbf 5f50 313f 643a 00be 3166 86be
00000030: 5899 4b3e 6fd8 31bf 80aa f3bc b882 8e3e
00000040: 56af bd3e b87c a13d 99d0 97be 7ce1 02bf
00000050: f6f1 c4be 18d2 f6bd dcfe 97be 440b 4bbe
00000060: e3bd 253f f7e4 043f fa6d cb3e 6c92 863e
00000070: 8859 11be 4e2a e1be 8904 2d3f 3932 223f

conv1.3.weight f4 [32]
1.0 1.0 1.0 1.0 1.0 1.0 1.0 1.0
1.0 1.0 1.0 1.0 1.0 1.0 1.0 1.0
1.0 1.0 1.0 1.0 1.0 1.0 1.0 1.0
1.0 1.0 1.0 1.0 1.0 1.0 1.0 1.0
00000000: 0000 803f 0000 803f 0000 803f 0000 803f
00000010: 0000 803f 0000 803f 0000 803f 0000 803f
00000020: 0000 803f 0000 803f 0000 803f 0000 803f
00000030: 0000 803f 0000 803f 0000 803f 0000 803f
00000040: 0000 803f 0000 803f 0000 803f 0000 803f
00000050: 0000 803f 0000 803f 0000 803f 0000 803f
00000060: 0000 803f 0000 803f 0000 803f 0000 803f
00000070: 0000 803f 0000 803f 0000 803f 0000 803f

conv1.3.bias f4 [32]
0.0 0.0 0.0 0.0 0.0 0.0 0.0 0.0
0.0 0.0 0.0 0.0 0.0 0.0 0.0 0.0
0.0 0.0 0.0 0.0 0.0 0.0 0.0 0.0
0.0 0.0 0.0 0.0 0.0 0.0 0.0 0.0
00000000: 0000 0000 0000 0000 0000 0000 0000 0000
00000010: 0000 0000 0000 0000 0000 0000 0000 0000
00000020: 0000 0000 0000 0000 0000 0000 0000 0000
00000030: 0000 0000 0000 0000 0000 0000 0000 0000
00000040: 0000 0000 0000 0000 0000 0000 0000 0000
00000050: 0000 0000 0000 0000 0000 0000 0000 0000
00000060: 0000 0000 0000 0000 0000 0000 0000 0000
00000070: 0000 0000 0000 0000 0000 0000 0000 0000

conv1.3.running_mean f4 [32]
0.0 0.0 0.0 0.0 0.0 0.0 0.0 0.0
0.0 0.0 0.0 0.0 0.0 0.0 0.0 0.0
0.0 0.0 0.0 0.0 0.0 0.0 0.0 0.0
0.0 0.0 0.0 0.0 0.0 0.0 0.0 0.0
00000000: 0000 0000 0000 0000 0000 0000 0000 0000
00000010: 0000 0000 0000 0000 0000 0000 0000 0000
00000020: 0000 0000 0000 0000 0000 0000 0000 0000
00000030: 0000 0000 0000 0000 0000 0000 0000 0000
00000040: 0000 0000 0000 0000 0000 0000 0000 0000
00000050: 0000 0000 0000 0000 0000 0000 0000 0000
00000060: 0000 0000 0000 0000 0000 0000 0000 0000
00000070: 0000 0000 0000 0000 0000 0000 0000 0000

conv1.3.running_var f4 [32]
1.0 1.0 1.0 1.0 1.0 1.0 1.0 1.0
1.0 1.0 1.0 1.0 1.0 1.0 1.0 1.0
1.0 1.0 1.0 1.0 1.0 1.0 1.0 1.0
1.0 1.0 1.0 1.0 1.0 1.0 1.0 1.0
00000000: 0000 803f 0000 803f 0000 803f 0000 803f
00000010: 0000 803f 0000 803f 0000 803f 0000 803f
00000020: 0000 803f 0000 803f 0000 803f 0000 803f
00000030: 0000 803f 0000 803f 0000 803f 0000 803f
00000040: 0000 803f 0000 803f 0000 803f 0000 803f
00000050: 0000 803f 0000 803f 0000 803f 0000 803f
00000060: 0000 803f 0000 803f 0000 803f 0000 803f
00000070: 0000 803f 0000 803f 0000 803f 0000 803f

conv1.4.weight f4 [32, 32, 4, 1]
0.08482822 0.036187664 -0.015135542 0.030046538 0.020109095 0.02516085 0.008332804 0.077365674
0.012969956 -0.0033718199 -0.011546403 0.032463074 0.048026465 -0.082780495 -0.008547708 -0.013709925
0.008677445 -0.04857226 0.025514975 0.083565645 0.0363824 0.06552511 -0.003387019 0.05036553
0.017507546 -0.038467914 -0.052410144 -0.01081118 0.050869577 -0.06697823 -0.020809993 -0.065259494
0.009254687 -0.033287875 0.01883743 -0.018754005 -0.009186149 0.07326443 -0.022147097 0.009002492
-0.056412965 0.03805489 0.059322245 0.05806709 -0.0362353 0.026090644 -0.024801388 0.050806947
-0.08792327 -0.059439644 -0.009178653 0.048333563 -0.06413546 -0.070252515 0.014654681 0.047454424
0.0798221 -0.031749714 -0.022895388 -0.04925955 0.05238285 -0.07022179 -0.023098879 -0.055879228
0.06924609 -0.048559144 -0.08617897 0.017121844 0.040491514 -0.029586423 0.0011848956 0.06558845
0.0710449 0.081900336 -0.04726077 0.03455761 -0.028966654 -0.045968324 -0.029417034 -0.032730356
-0.027359162 0.0419992 -0.08763757 0.0814138 -0.03921738 -0.06626217 0.038684227 0.0041327477
0.079265065 -0.07476407 0.004876271 0.061667092 0.007522054 0.017254204 0.026239924 -0.076325834
0.047619663 -0.07926584 -0.08264445 0.038366176 -0.05008232 0.02276896 -0.038391184 -0.040991243
-0.05306894 -0.0510213 -0.066725925 -0.04050288 0.023748629 0.061612807 0.01132036 0.036075376
-0.043447226 -0.0628386 -0.0033093095 -0.07622904 0.005735852 0.076414876 -0.06782019 -0.018714108
-0.04444111 -0.075637236 0.060045533 -0.047166675 0.046158202 0.0536898 -0.059881948 -0.008061133
-0.050320208 0.055109493 -0.0526058 0.07896007 0.018952847 -0.041419476 -0.023047201 -0.016482629
-0.012545429 0.08764473 -0.009422265 0.08126109 0.012153335 0.073285334 -0.03513182 -0.00799419
-0.014499813 -0.021493636 0.024160154 0.02469363 -0.031829182 -0.025917139 -0.08279733 0.0050634816
0.040974937 0.0008381605 0.054739498 0.07449203 0.074699245 0.009255625 0.027568989 -0.008381367
0.071065955 0.07703788 0.06006985 -0.016660608 0.0031369925 -0.07931791 0.015938886 0.032397337
-0.04738429 0.03229463 0.047155194 -0.012868129 0.047108375 0.081529625 0.01531034 0.07497827
0.029010952 -0.03405501 0.037030406 -0.0066426396 -0.026069753 -0.04172506 -0.014071524 0.05498632
0.024826199 -0.054861423 -0.041940864 0.009570435 -0.032456465 0.0016582459 -0.017736182 -0.05686619
-0.06245167 0.061187245 -0.0028040186 0.05584196 -0.030938495 -0.027298175 0.002235353 0.054740556
0.07112246 0.084768526 0.028385013 0.02877362 -0.0852804 0.014028281 0.034237683 0.006203182
-0.08183293 0.056240655 0.0232113 -0.054551918 -0.018683448 -0.025419787 -0.06321323 0.003408648
0.03429623 -0.05653166 0.034991585 -0.053148966 0.041433223 -0.06064499 0.01244133 -0.019374117
-0.081449986 0.006647706 0.054948352 0.03288094 0.07505774 -0.077967234 -0.063584134 -0.06401703
0.01187522 0.036662348 0.014491826 0.031517982 -0.07605119 -0.030503906 0.07446436 -0.052470107
-0.035555724 0.076218404 -0.05225601 -0.025979359 0.08410422 -0.0017455518 0.03791777 -0.06790981
-0.016402155 -0.021820098 -0.017033294 -0.082008526 -0.053366043 0.009523332 0.007799424 -0.07459776
00000000: 6bba ad3d 8439 143d 10fb 77bc 2824 f63c
00000010: d4bb a43c 201e ce3c 5086 083c e571 9e3d
00000020: f07f 543c c0f9 5cbb 202d 3dbc 00f8 043d
00000030: 66b7 443d d288 a9bd b00b 0cbc 989f 60bc
00000040: d82b 0e3c b5f3 46bd c804 d13c 7724 ab3d
00000050: b605 153d 0732 863d c0f8 5dbb 164c 4e3d
00000060: fc6b 8f3c 8890 1dbd 05ac 56bd 6021 31bc
00000070: 9e5c 503d e22b 89bd b879 aabc c5a6 85bd
00000080: f8a0 173c de58 08bd f450 9a3c 00a2 99bc
00000090: 8081 16bc a90b 963d d46d b5bc 307f 133c
000000a0: 4811 67bd 72df 1b3d e2fb 723d c2d7 6d3d
000000b0: 776b 14bd 0cbc d53c 482c cbbc f21a 503d
000000c0: 1e11 b4bd fc76 73bd 1062 16bc 6af9 453d
000000d0: 7459 83bd 8de0 8fbd 301a 703c 925f 423d
000000e0: c579 a33d fd0b 02bd 1c8f bbbc 62c4 49bd
000000f0: 668f 563d 71d0 8fbd dc39 bdbc 9ee1 64bd
00000100: e5d0 8d3d f4e5 46bd 9a7e b0bd 1c43 8c3c
00000110: 6eda 253d 3a5f f2bc 804e 9b3a 3d53 863d
00000120: fd7f 913d 5dbb a73d 8294 41bd 488c 0d3d
00000130: 7a4b edbc 4849 3cbd fefb f0bc 4410 06bd
00000140: 5220 e0bc 5a07 2c3d 547b b3bd 47bc a63d
00000150: 67a2 20bd 76b4 87bd 5a73 1e3d 006c 873b
00000160: b955 a23d e81d 99bd 20c9 9f3b a296 7c3d
00000170: 907b f63b b058 8d3c 1cf5 d63c b850 9cbd
00000180: d60c 433d 2156 a2bd 7e41 a9bd da25 1d3d
00000190: 1e23 4dbd f885 ba3c 1340 1dbd 6fe6 27bd
000001a0: d15e 59bd b6fb 50bd 9aa7 88bd 59e6 25bd
000001b0: 7c8c c23c b65d 7c3d 0879 393c c6c3 133d
000001c0: b8f5 31bd 86b1 80bd 00e1 58bb f91d 9cbd
000001d0: d0f3 bb3b 677f 9c3d 50e5 8abd 544e 99bc
000001e0: e207 36bd b2e7 9abd 4ef2 753d d831 41bd
000001f0: 6210 3d3d d6e9 5b3d c646 75bd d812 04bc
00000200: 901c 4ebd 7eba 613d 2e79 57bd d1b5 a13d
00000210: 0043 9b3c 78a7 29bd 7ccd bcbc 9406 87bc
00000220: 588b 4dbc 157f b33d d85f 1abc 376c a63d
00000230: c81e 473c 9f16 963d 62e6 0fbd 10fa 02bc
00000240: a090 6dbc 6c13 b0bc 84eb c53c 4c4a ca3c
00000250: 515f 02bd 2e50 d4bc a691 a9bd 90eb a53b
00000260: 56d5 273d 00b8 5b3a 8636 603d 478f 983d
00000270: ebfb 983d e8a4 173c 5cd8 e13c 0052 09bc
00000280: 078b 913d 09c6 9d3d ce0b 763d d47b 88bc
00000290: 0096 4d3b 6e71 a2bd 4492 823c 12b3 043d
000002a0: 0716 42bd 6047 043d ce25 413d d8d4 52bc
000002b0: b6f4 403d 01f9 a63d 38d8 7a3c 358e 993d
000002c0: 60a8 ed3c 447d 0bbd 32ad 173d 80aa d9bb
000002d0: 3c90 d5bc e6e7 2abd 408c 66bc 5639 613d
000002e0: 5060 cb3c 5fb6 60bd 2fca 2bbd 50cd 1c3c
000002f0: 12f1 04bd 8059 d93a 784b 91bc 86ec 68bd
00000300: 53cd 7fbd 7a9f 7a3d a0c3 37bb 8aba 643d
00000310: ba72 fdbc 6ca0 dfbc 007f 123b a237 603d
00000320: a7a8 913d 1f9b ad3d b087 e83c a8b6 eb3c
00000330: 7ea7 aebd e0d6 653c d03c 0c3d 1044 cb3b
00000340: 0698 a7bd 9a5c 663d a025 be3c d571 5fbd
00000350: 080e 99bc 283d d0bc f075 81bd a063 5f3b
00000360: 347a 0c3d be8d 67bd 5653 0f3d bbb2 59bd
00000370: e2b5 293d e266 78bd b8d6 4b3c 78b6 9ebc
00000380: 40cf a6bd 00d5 d93b 8611 613d 2aae 063d
00000390: dfb7 993d 49ad 9fbd 6638 82bd 5c1b 83bd
000003a0: 4890 423c 422b 163d 206f 6d3c 0019 013d
000003b0: bac0 9bbd 54e3 f9bc c580 983d e5ea 56bd
000003c0: e1a2 11bd 6518 9c3d 660a 56bd aad2 d4bc
000003d0: d53e ac3d 00cb e4ba aa4f 1b3d 4c14 8bbd
000003e0: d05d 86bc 10c0 b2bc 6889 8bbc 16f4 a7bd
000003f0: 5a96 5abd c007 1c3c 5092 ff3b b6c6 98bd

conv1.4.bias f4 [32]
0.03272129 0.07387256 -0.039141588 -0.0819813 -0.06487556 0.00540822 -0.07007434 -0.056272954
-0.055453904 0.0873586 -0.059427045 -0.0013574958 -0.075792454 -0.026960157 -0.051114824 -0.027001653
0.086101644 0.040813588 0.048042946 0.04379829 0.006429225 0.009903729 0.06475612 -0.08707316
0.06065353 -0.0010816455 -0.008389823 -0.010730669 0.072883226 -0.07872546 0.08171693 -0.07987597
00000000: c206 063d 7f4a 973d ee52 20bd d0e5 a7bd
00000010: 7add 84bd 7037 b13b 2383 8fbd 787e 66bd
00000020: a223 63bd 11e9 b23d c669 73bd 00ee b1ba
00000030: 1339 9bbd 8cdb dcbc c75d 51bd 9232 ddbc
00000040: 0f56 b03d 262c 273d aec8 443d d665 333d
00000050: 40ac d23b 4043 223c db9e 843d 6a53 b2bd
00000060: d66f 783d 00c6 8dba 7875 09bc b0cf 2fbc
00000070: cd43 953d d03a a1bd 355b a73d 0396 a3bd

conv1.6.weight f4 [32]
1.0 1.0 1.0 1.0 1.0 1.0 1.0 1.0
1.0 1.0 1.0 1.0 1.0 1.0 1.0 1.0
1.0 1.0 1.0 1.0 1.0 1.0 1.0 1.0
1.0 1.0 1.0 1.0 1.0 1.0 1.0 1.0
00000000: 0000 803f 0000 803f 0000 803f 0000 803f
00000010: 0000 803f 0000 803f 0000 803f 0000 803f
00000020: 0000 803f 0000 803f 0000 803f 0000 803f
00000030: 0000 803f 0000 803f 0000 803f 0000 803f
00000040: 0000 803f 0000 803f 0000 803f 0000 803f
00000050: 0000 803f 0000 803f 0000 803f 0000 803f
00000060: 0000 803f 0000 803f 0000 803f 0000 803f
00000070: 0000 803f 0000 803f 0000 803f 0000 803f

conv1.6.bias f4 [32]
0.0 0.0 0.0 0.0 0.0 0.0 0.0 0.0
0.0 0.0 0.0 0.0 0.0 0.0 0.0 0.0
0.0 0.0 0.0 0.0 0.0 0.0 0.0 0.0
0.0 0.0 0.0 0.0 0.0 0.0 0.0 0.0
00000000: 0000 0000 0000 0000 0000 0000 0000 0000
00000010: 0000 0000 0000 0000 0000 0000 0000 0000
00000020: 0000 0000 0000 0000 0000 0000 0000 0000
00000030: 0000 0000 0000 0000 0000 0000 0000 0000
00000040: 0000 0000 0000 0000 0000 0000 0000 0000
00000050: 0000 0000 0000 0000 0000 0000 0000 0000
00000060: 0000 0000 0000 0000 0000 0000 0000 0000
00000070: 0000 0000 0000 0000 0000 0000 0000 0000

conv1.6.running_mean f4 [32]
0.0 0.0 0.0 0.0 0.0 0.0 0.0 0.0
0.0 0.0 0.0 0.0 0.0 0.0 0.0 0.0
0.0 0.0 0.0 0.0 0.0 0.0 0.0 0.0
0.0 0.0 0.0 0.0 0.0 0.0 0.0 0.0
00000000: 0000 0000 0000 0000 0000 0000 0000 0000
00000010: 0000 0000 0000 0000 0000 0000 0000 0000
00000020: 0000 0000 0000 0000 0000 0000 0000 0000
00000030: 0000 0000 0000 0000 0000 0000 0000 0000
00000040: 0000 0000 0000 0000 0000 0000 0000 0000
00000050: 0000 0000 0000 0000 0000 0000 0000 0000
00000060: 0000 0000 0000 0000 0000 0000 0000 0000
00000070: 0000 0000 0000 0000 0000 0000 0000 0000

conv1.6.running_var f4 [32]
1.0 1.0 1.0 1.0 1.0 1.0 1.0 1.0
1.0 1.0 1.0 1.0 1.0 1.0 1.0 1.0
1.0 1.0 1.0 1.0 1.0 1.0 1.0 1.0
1.0 1.0 1.0 1.0 1.0 1.0 1.0 1.0
00000000: 0000 803f 0000 803f 0000 803f 0000 803f
00000010: 0000 803f 0000 803f 0000 803f 0000 803f
00000020: 0000 803f 0000 803f 0000 803f 0000 803f
00000030: 0000 803f 0000 803f 0000 803f 0000 803f
00000040: 0000 803f 0000 803f 0000 803f 0000 803f
00000050: 0000 803f 0000 803f 0000 803f 0000 803f
00000060: 0000 803f 0000 803f 0000 803f 0000 803f
00000070: 0000 803f 0000 803f 0000 803f 0000 803f

conv1.7.weight f4 [32, 32, 4, 1]
-0.07866668 0.027696505 -0.014381833 0.025697343 0.0037962496 0.023689017 0.039140396 -0.02318161
0.03533204 0.010144733 0.05260945 -0.017376512 0.058432944 -0.08173973 -0.037383072 0.018279277
0.059945665 -0.015431255 0.08078877 0.036728136 -0.0449937 -0.015043773 0.011288948 0.044118382
0.04934322 0.021422565 -0.08041398 -0.046417966 0.047854297 -0.026347376 -0.05852647 0.049091496
0.06230215 -0.016430117 0.017068423 0.050534688 -0.020578228 -0.077558525 0.020694092 0.08138334
0.043241628 -0.073800355 0.04171852 0.062238254 0.07359398 0.07495553 0.011053145 0.039175637
-0.021591589 0.036161944 -0.018616728 0.041671462 0.084359504 0.02883327 -0.07451218 0.063760065
0.0016993955 -0.087934256 0.055367224 -0.0036309063 0.04078818 0.035013475 -0.008956879 -0.0036786646
0.0737206 0.006624095 -6.0155988e-05 0.026640296 0.048535936 -0.032373816 0.030060984 0.029166766
-0.0614257 0.04271633 0.04175832 -0.041926473 -0.072477505 0.036668397 0.010311425 0.043737747
0.076206796 -0.06413449 -0.011606686 0.00051514804 0.08699074 0.026575685 0.028875351 0.055737652
-0.069230705 0.06535462 -0.05229088 -0.013130419 0.032540746 0.005959451 -0.010829382 -0.00025170296
0.067752086 -0.05608574 0.026985131 0.079527445 0.053660475 0.022083767 0.027711406 -0.022298329
-0.060366794 0.07310539 0.004089445 -0.067734756 -0.08107763 -0.08649002 0.058816575 -0.06352885
0.036593623 -0.063922375 -0.015491895 -0.085658506 0.07773047 -0.04368699 -0.06783843 -0.008762158
0.04279811 0.05817703 0.0094919875 0.04504282 0.0010050684 -0.0015437454 0.081667416 -0.02828262
0.0661292 0.044096418 0.079369135 0.00049191713 -0.033301435 -0.023585573 0.00067670643 0.05792471
0.010918669 -0.052267097 0.025402725 0.06437213 -0.03898024 0.025002167 -0.020927206 0.014274634
0.03190677 -0.06668597 0.048208915 -0.011135884 0.035282284 -0.07482802 0.052218057 0.04900659
-0.075051114 0.019897781 -0.087666415 -0.055216186 -0.053037405 -0.03362112 -0.023217782 0.01594513
-0.07431772 0.075490125 0.086045675 0.051058866 0.028952703 -0.02597268 0.049352996 0.0274802
-0.08611822 0.054835655 -0.015665606 -0.058666177 -0.081530035 -0.031179067 0.0027264357 0.0017899647
-0.01582411 -0.0059647486 -0.036548197 -0.040723886 0.057031564 0.027525336 0.044972785 0.004355073
0.0751692 0.06408366 -0.06850225 0.053833686 0.010777637 -0.024213195 0.063283466 0.047502033
-0.08555059 0.011702791 -0.034503497 0.0071601197 -0.08642981 -0.068766944 0.022533119 0.03234548
-0.033332795 0.04347732 -0.012459621 -0.03811039 0.012361869 -0.075910844 -0.048144955 -0.061362945
-0.0738931 -0.086952984 0.00541161 0.06644801 -0.06884104 0.072652735 0.030756392 0.024371035
-0.050563194 0.08001175 -0.04095817 0.04789839 0.062203757 -0.06873407 0.003269501 0.033779643
0.039961614 -0.06644904 0.08345317 -0.068208 -0.070612304 0.04110176 0.0049171597 -0.033512685
0.060338236 0.010326631 -0.015840806 -0.035631407 0.040005527 -0.052125853 -0.06637309 0.03680121
0.042924292 0.0880715 -0.04869118 -0.050028384 -0.004029408 0.04648579 -0.06382547 0.07989786
0.0011420846 0.017878681 -0.026026428 -0.032842606 0.05654078 -0.025238313 0.08409255 -0.046959966
00000000: ff1b a1bd c8e3 e23c c8a1 6bbc 3c83 d23c
00000010: 80ca 783b 780f c23c ae51 203d 5ce7 bdbc
00000020: 54b8 103d 1836 263c 027d 573d 3059 8ebc
00000030: 6257 6f3d 2967 a7bd fe1e 19bd 6cbe 953c
00000040: 9689 753d 60d3 7cbc 9574 a53d 3e70 163d
00000050: 504b 38bd 287a 76bc 48f5 383c 7ab5 343d
00000060: 1e1c 4a3d 607e af3c 16b0 a4bd c420 3ebd
00000070: de02 443d 74d6 d7bc 74b9 6fbd 2a14 493d
00000080: 8a30 7f3d 7498 86bc 14d3 8b3c 76fd 4e3d
00000090: ac93 a8bc 01d7 9ebd a886 a93c 4fac a63d
000000a0: 221e 313d a424 97bd 0ae1 2a3d 8aed 7e3d
000000b0: 71b8 963d 4982 993d 4018 353c a276 203d
000000c0: d8e0 b0bc 8c1e 143d 1c82 98bc b2af 2a3d
000000d0: adc4 ac3d c033 ec3c d899 98bd a394 823d
000000e0: 40be de3a e016 b4bd bec8 623d 80f4 6dbb
000000f0: 8211 273d 4a6a 0f3d e0bf 12bc c015 71bb
00000100: d3fa 963d f00e d93b 0050 7cb8 c03c da3c
00000110: 9ecd 463d 689a 04bd 7442 f63c 24ef ee3c
00000120: 8499 7bbd 52f7 2e3d c60a 2b3d 18bb 2bbd
00000130: 166f 94bd 9a31 163d 40f1 283c 5a26 333d
00000140: 4f12 9c3d f258 83bd f829 3ebc 000b 073a
00000150: 3328 b23d 40b5 d93c 008c ec3c 2a4d 643d
00000160: d4c8 8dbd a5d8 853d f62e 56bd f820 57bc
00000170: 7249 053d 8047 c33b b86d 31bc 00f7 83b9
00000180: 9bc1 8a3d 29ba 65bd ec0f dd3c 49df a23d
00000190: 16cb 5b3d 04e9 b43c 0803 e33c fcaa b6bc
000001a0: 2c43 77bd 47b8 953d c000 863b 85b8 8abd
000001b0: 070c a6bd ae21 b1bd a6e9 703d 6a1b 82bd
000001c0: 32e3 153d bce9 82bd b8d1 7dbc ba6d afbd
000001d0: 2731 9f3d 21f1 32bd e0ee 8abd 288f 0fbc
000001e0: 124d 2f3d 0a4b 6e3d 4884 1b3c d27e 383d
000001f0: 80bc 833a 8057 caba 3f41 a73d f4b0 e7bc
00000200: bf6e 873d 729e 343d 498c a23d 00f4 003a
00000210: 1667 08bd 8836 c1bc 0065 313a 7642 6d3d
00000220: 38e4 323c 0616 56bd 6019 d03c 89d5 833d
00000230: bea9 1fbd 58d1 cc3c 886f abbc 28e0 693c
00000240: acb0 023d a792 88bd b676 453d 4873 36bc
00000250: 2884 103d 6f3f 99bd 9ae2 553d 22bb 483d
00000260: 66b4 99bd ac00 a33c 738a b3bd 5e2a 62bd
00000270: c03d 59bd 4db6 09bd 3833 bebc 5c9f 823c
00000280: e433 98bd 919a 9a3d b738 b03d 1a23 513d
00000290: 382e ed3c a8c4 d4bc 5e26 4a3d 281e e13c
000002a0: c05e b0bd 5a9b 603d 2855 80bc f24b 70bd
000002b0: 38f9 a6bd 3e6b ffbc 00ae 323b 409d ea3a
000002c0: 90a1 81bc f073 c3bb 90b3 15bd 17ce 26bd
000002d0: ee99 693d d07c e13c 6235 383d 00b5 8e3b
000002e0: 4ff2 993d 4b3e 833d e84a 8cbd b680 5c3d
000002f0: b094 303c c05a c6bc c39a 813d 7e91 423d
00000300: 2635 afbd 10bd 3f3c 8a53 0dbd 709f ea3b
00000310: 1d02 b1bd afd5 8cbd 6097 b83c b27c 043d
00000320: f887 08bd 4615 323d 7023 4cbc a419 1cbd
00000330: 7089 4a3c 2577 9bbd a533 45bd b657 7bbd
00000340: 4455 97bd 6814 b2bd e053 b13b e515 883d
00000350: 88fc 8cbd f5ca 943d d4f4 fb3c c4a5 c73c
00000360: 5a1b 4fbd 33dd a33d c1c3 27bd 1a31 443d
00000370: 5ec9 7e3d 73c4 8cbd 2045 563b 865c 0a3d
00000380: caae 233d 6f16 88bd 7fe9 aa3d a3b0 8bbd
00000390: 2f9d 90bd 525a 283d 2020 a13b 9944 09bd
000003a0: 3a25 773d 0831 293c 94c4 81bc 3df2 11bd
000003b0: d6dc 233d eb81 55bd 9dee 87bd debc 163d
000003c0: 62d1 2f3d d55e b43d 6770 47bd 90ea 4cbd
000003d0: 2009 84bb e267 3e3d eeb6 82bd 7da1 a33d
000003e0: 00b2 953a 5076 923c 6035 d5bc f885 06bd
000003f0: 4e97 673d 94c0 cebc b738 ac3d 1859 40bd

conv1.7.bias f4 [32]
0.07051427 -0.075162254 0.027677454 -0.009159192 -0.078344755 0.020098992 -0.08515732 0.028213888
-0.020435601 0.033869766 0.05177992 -0.014149226 -0.07165307 0.02765812 0.02812007 -0.07991672
-0.0554305 -0.0419661 -0.010610089 0.008018859 -0.036404647 0.040340208 -0.00030062348 -0.07136647
-0.05947935 -0.06342359 -0.03271682 -0.03688788 0.08654826 -0.07698668 -0.07591265 -0.0805878
00000000: c969 903d abee 99bd d4bb e23c 7010 16bc
00000010: 3773 a0bd a4a6 a43c f666 aebd d020 e73c
00000020: 9068 a7bc 06bb 0a3d 2e17 543d 28d2 67bc
00000030: d8be 92bd 4893 e23c 105c e63c 61ab a3bd
00000040: 180b 63bd a5e4 2bbd f0d5 2dbc 8861 033c
00000050: 0a1d 15bd c63b 253d 009d 9db9 9528 92bd
00000060: 9ea0 73bd 3ae4 81bd 1202 06bd bf17 17bd
00000070: 3740 b13d 31ab 9dbd 1778 9bbd 370b a5bd

conv1.9.weight f4 [32]
1.0 1.0 1.0 1.0 1.0 1.0 1.0 1.0
1.0 1.0 1.0 1.0 1.0 1.0 1.0 1.0
1.0 1.0 1.0 1.0 1.0 1.0 1.0 1.0
1.0 1.0 1.0 1.0 1.0 1.0 1.0 1.0
00000000: 0000 803f 0000 803f 0000 803f 0000 803f
00000010: 0000 803f 0000 803f 0000 803f 0000 803f
00000020: 0000 803f 0000 803f 0000 803f 0000 803f
00000030: 0000 803f 0000 803f 0000 803f 0000 803f
00000040: 0000 803f 0000 803f 0000 803f 0000 803f
00000050: 0000 803f 0000 803f 0000 803f 0000 803f
00000060: 0000 803f 0000 803f 0000 803f 0000 803f
00000070: 0000 803f 0000 803f 0000 803f 0000 803f

conv1.9.bias f4 [32]
0.0 0.0 0.0 0.0 0.0 0.0 0.0 0.0
0.0 0.0 0.0 0.0 0.0 0.0 0.0 0.0
0.0 0.0 0.0 0.0 0.0 0.0 0.0 0.0
0.0 0.0 0.0 0.0 0.0 0.0 0.0 0.0
00000000: 0000 0000 0000 0000 0000 0000 0000 0000
00000010: 0000 0000 0000 0000 0000 0000 0000 0000
00000020: 0000 0000 0000 0000 0000 0000 0000 0000
00000030: 0000 0000 0000 0000 0000 0000 0000 0000
00000040: 0000 0000 0000 0000 0000 0000 0000 0000
00000050: 0000 0000 0000 0000 0000 0000 0000 0000
00000060: 0000 0000 0000 0000 0000 0000 0000 0000
00000070: 0000 0000 0000 0000 0000 0000 0000 0000

conv1.9.running_mean f4 [32]
0.0 0.0 0.0 0.0 0.0 0.0 0.0 0.0
0.0 0.0 0.0 0.0 0.0 0.0 0.0 0.0
0.0 0.0 0.0 0.0 0.0 0.0 0.0 0.0
0.0 0.0 0.0 0.0 0.0 0.0 0.0 0.0
00000000: 0000 0000 0000 0000 0000 0000 0000 0000
00000010: 0000 0000 0000 0000 0000 0000 0000 0000
00000020: 0000 0000 0000 0000 0000 0000 0000 0000
00000030: 0000 0000 0000 0000 0000 0000 0000 0000
00000040: 0000 0000 0000 0000 0000 0000 0000 0000
00000050: 0000 0000 0000 0000 0000 0000 0000 0000
00000060: 0000 0000 0000 0000 0000 0000 0000 0000
00000070: 0000 0000 0000 0000 0000 0000 0000 0000

conv1.9.running_var f4 [32]
1.0 1.0 1.0 1.0 1.0 1.0 1.0 1.0
1.0 1.0 1.0 1.0 1.0 1.0 1.0 1.0
1.0 1.0 1.0 1.0 1.0 1.0 1.0 1.0
1.0 1.0 1.0 1.0 1.0 1.0 1.0 1.0
00000000: 0000 803f 0000 803f 0000 803f 0000 803f
00000010: 0000 803f 0000 803f 0000 803f 0000 803f
00000020: 0000 803f 0000 803f 0000 803f 0000 803f
00000030: 0000 803f 0000 803f 0000 803f 0000 803f
00000040: 0000 803f 0000 803f 0000 803f 0000 803f
00000050: 0000 803f 0000 803f 0000 803f 0000 803f
00000060: 0000 803f 0000 803f 0000 803f 0000 803f
00000070: 0000 803f 0000 803f 0000 803f 0000 803f

conv2.0.weight f4 [32, 32, 1, 2]
0.11214857 -0.07283497 0.046415478 -0.04582782 0.07723506 -0.021278173 -0.04051642 0.0747617
-0.07361108 -0.062780604 -0.10592601 -0.02882135 0.08238314 0.11182347 0.06434797 0.084196776
0.10158813 -0.08565208 -0.039797723 0.050634116 0.058331564 -0.1102705 0.013133407 -0.12166567
0.015575588 -0.04304412 -0.03631276 0.06605181 -0.040446967 -0.07300717 0.020382583 0.036767617
0.117333144 0.04314351 -0.08045176 0.1133976 0.015506491 0.06047423 -0.014837563 0.0069228113
0.061051324 -0.08132504 0.04227802 -0.11410394 -0.008473054 -0.062192857 0.059187293 -0.03464946
0.0385779 0.07809222 0.083505616 0.02146414 0.044338003 0.11082333 -0.09144525 0.047533244
-0.057634145 0.025655538 -0.09782678 -0.052437276 -0.08011666 0.03882499 -0.06679697 0.084292784
0.025162533 -0.104041815 0.023584753 -0.0040102154 -0.019165874 0.00455451 0.10628644 -0.11947836
0.013554826 -0.020549014 0.06850828 -0.067909494 0.044292137 -0.050813884 -0.04957983 -0.011667624
0.06213662 -0.081985906 0.028830424 0.07751784 0.11823571 -0.04356207 0.013038099 -0.096305564
0.02851899 0.008196011 -0.035689622 -0.009564251 -0.04679273 0.08875494 0.023437157 0.0073030293
0.099059224 0.036190093 -0.022802368 0.08265284 0.036427468 0.09321785 0.007563725 0.08678755
0.09584741 0.06750837 0.0597928 -0.055209637 -0.12473841 -0.048476234 0.043834344 -0.082360685
0.006171331 -0.10651015 0.0019136518 -0.040253952 -0.12007299 -0.11449617 -0.0827927 0.09705208
-0.073932484 0.07388969 0.05113679 -0.08886501 -0.11829217 -0.030734539 0.11316797 0.07004464
0.11579731 -0.09734063 -0.06960288 0.061950862 0.06998101 0.06966913 -0.039063647 -0.03623654
-0.05982338 -0.026190981 0.02257818 0.0019976944 -0.043372557 0.038420424 0.095199704 0.117941275
0.028695464 -0.098277345 -0.09499121 0.08708204 0.08251162 -0.05341953 -0.059677467 0.05299358
-0.028263181 0.103752226 -0.09419517 -0.051421463 0.120832756 0.027819127 0.030263051 0.004759267
0.04148151 -0.027696356 0.018223703 0.058711573 0.11594167 0.029320195 0.032454476 -0.018942207
-0.063592196 -0.107236266 0.04934013 0.10456745 0.018776655 -0.08622415 -0.1046426 0.10383791
-0.091614574 0.06470731 0.047518685 -0.08943622 0.045272753 0.025520176 0.013950601 -0.08529274
0.011945084 -0.124176115 -0.047633946 -0.076177165 -0.06007287 0.11373709 0.12147775 0.0062741637
-0.049060836 -0.11308439 -0.028545067 -0.028250575 -0.000582397 -0.058544397 -0.012758777 -0.10398319
0.096212596 -0.07563795 -0.06615101 -0.0020717233 0.0023723096 0.09121831 -0.12026775 0.035308868
0.026927575 -0.004950896 0.07314573 -0.11909138 0.122995526 -0.02325511 -0.07046473 -0.10924871
0.067041695 -0.09902267 0.11225413 0.061171174 0.099272 -0.0065275133 -0.059700057 0.096545324
0.020702526 0.043990895 -0.053065673 0.0500094 0.057745546 -0.10379964 0.007934123 0.026144683
-0.022439986 -0.0909069 0.020768791 -0.027632475 0.092857674 0.0678612 -0.009352058 -0.106481954
-0.099914595 0.031908557 0.03165616 0.014576182 -0.038085535 0.07103033 0.057998642 0.086168975
0.0066765845 0.06829476 0.013176531 0.081790105 0.041810185 0.028196543 0.011748731 0.099327475
00000000: 26ae e53d 802a 95bd 281e 3e3d f4b5 3bbd
00000010: 6a2d 9e3d 904f aebc 8cf4 25bd aa1c 993d
00000020: 68c1 96bd 1e93 80bd bcef d8bd c01a ecbc
00000030: 7eb8 a83d b403 e53d dec8 833d 5c6f ac3d
00000040: 700d d03d 5c6a afbd f002 23bd b865 4f3d
00000050: 14ed 6e3d 80d5 e1bd 802d 573c da2b f9bd
00000060: c030 7f3c 084f 30bd b0bc 14bd 2c46 873d
00000070: b8ab 25bd c884 95bd 60f9 a63c a499 163d
00000080: 5c4c f03d 40b7 303d e4c3 a4bd 003d e83d
00000090: f00e 7e3c d4b3 773d 4019 73bc c0d8 e23b
000000a0: f410 7a3d be8d a6bd b82b 2d3d 54af e9bd
000000b0: 90d2 0abc f0bd 7ebd 606e 723d 98ec 0dbd
000000c0: dc03 1e3d d0ee 9f3d fe04 ab3d 90d5 af3c
000000d0: c49b 353d 58f7 e23d a647 bbbd 38b2 423d
000000e0: c811 6cbd 902b d23c 6859 c8bd 78c8 56bd
000000f0: 3414 a4bd f406 1f3d dacc 88bd b2a1 ac3d
00000100: a821 ce3c e013 d5bd d034 c13c 2068 83bb
00000110: c001 9dbc 003e 953b b4ac d93d 12b1 f4bd
00000120: 1015 5e3c 6856 a8bc 124e 8c3d 2214 8bbd
00000130: ac6b 353d 3822 50bd 3814 4bbd 9029 3fbc
00000140: f882 7e3d 3ae8 a7bd c82d ec3c acc1 9e3d
00000150: 9025 f23d 246e 32bd c09d 553c da3b c5bd
00000160: a8a0 e93c 9048 063c 482f 12bd 60b3 1cbc
00000170: bca9 3fbd 26c5 b53d 48ff bf3c 404e ef3b
00000180: 90df ca3d 103c 143d 08cc babc e445 a93d
00000190: f834 153d 00e9 be3d 20d9 f73b acbd b13d
000001a0: a64b c43d d441 8a3d 4ce9 743d 8023 62bd
000001b0: da76 ffbd 048f 46bd a48b 333d b8ac a8bd
000001c0: e038 ca3b fe21 dabd 80d3 fa3a 54e1 24bd
000001d0: d4e8 f5bd f87c eabd 388f a9bd 3ec3 c63d
000001e0: ea69 97bd 7a53 973d d074 513d dcfe b5bd
000001f0: 2a43 f2bd 00c7 fbbc 9cc4 e73d 9073 8f3d
00000200: 2427 ed3d 865a c7bd f48b 8ebd 30c0 7d3d
00000210: 3452 8f3d b0ae 8e3d 3401 20bd c46c 14bd
00000220: 5c09 75bd 788e d6bc e0f5 b83c c0eb 023b
00000230: 6ca7 31bd bc5e 1d3d 10f8 c23d 328b f13d
00000240: c012 eb3c a245 c9bd c08a c2bd 1258 b23d
00000250: dafb a83d 70ce 5abd 5c70 74bd cc0f 593d
00000260: 3088 e7bc 0c7c d43d 66e9 c0bd 509f 52bd
00000270: 2a77 f73d f0e4 e33c 38ea f73c a0f3 9b3b
00000280: 84e8 293d 78e3 e2bc e049 953c 8c7b 703d
00000290: d472 ed3d e830 f03c fcee 043d b02c 9bbc
000002a0: a03c 82bd b09e dbbd e018 4a3d 7627 d63d
000002b0: 80d1 993c 4a96 b0bd dc4e d6bd f8a8 d43d
000002c0: 6ca0 bbbd 4485 843d f4a2 423d 562a b7bd
000002d0: ec6f 393d b00f d13c 1091 643c f6ad aebd
000002e0: 50b5 433c 0c50 febd d01b 43bd c602 9cbd
000002f0: f80e 76bd feee e83d 54c9 f83d 8097 cd3b
00000300: 04f4 48bd ca98 e7bd 58d7 e9bc c06d e7bc
00000310: 00ac 18ba 40cc 6fbd 300a 51bc 24f5 d4bd
00000320: 1c0b c53d 12e8 9abd 2e7a 87bd c0c5 07bb
00000330: c078 1b3b aad0 ba3d f04e f6bd 08a0 103d
00000340: 3897 dc3c 203b a2bb 6ecd 953d 2ee6 f3bd
00000350: 14e5 fb3d 8081 bebc d04f 90bd cabd dfbd
00000360: 284d 893d 66cc cabd 7ee5 e53d a08e 7a3d
00000370: 1e4f cb3d c0e4 d5bb 0c88 74bd 8eb9 c53d
00000380: 5898 a93c cc2f 343d 645b 59bd a8d6 4c3d
00000390: 9886 6c3d e894 d4bd 20fe 013c 602d d63c
000003a0: 10d4 b7bc 662d babd 5023 aa3c 805d e2bc
000003b0: 2a2c be3d d0fa 8a3d 6039 19bc 3613 dabd
000003c0: 06a0 ccbd 8cb2 023d e4a9 013d f0d0 6e3c
000003d0: 94ff 1bbd 5a78 913d fc8f 6d3d 5c79 b03d
000003e0: 40c7 da3b 20de 8b3d 60e2 573c 9281 a73d
000003f0: 2841 2b3d 70fc e63c c07d 403c 346c cb3d

conv2.0.bias f4 [32]
0.09887381 -0.029016048 -0.055296674 0.089099154 0.121002525 -0.042123392 -0.088810414 -0.081334874
-0.091478646 0.019039184 -0.036824197 -0.11460823 -0.10905735 0.069994286 0.114142135 0.0048915893
-0.061870933 -0.084529445 0.09490535 -0.052409396 0.051711425 -0.10235001 -0.018317595 -0.10635243
-0.06344856 0.00087602437 -0.11557156 -0.09875657 0.04663253 0.0044288635 0.026297018 0.045519784
00000000: 5a7e ca3d 10b3 edbc c47e 62bd 9e79 b63d
00000010: 2cd0 f73d 9489 2cbd 3ce2 b5bd e692 a6bd
00000020: 2859 bbbd 10f8 9b3c f8d4 16bd b8b7 eabd
00000030: 7659 dfbd 2a59 8f3d 5ac3 e93d a049 a03b
00000040: 606c 7dbd c61d adbd bc5d c23d 3cab 56bd
00000050: 5ccf 533d e29c d1bd c80e 96bc 4ecf d9bd
00000060: 52f1 81bd 00a5 653a c8b0 ecbd e240 cabd
00000070: c001 3f3d 0020 913b d86c d73c f472 3a3d

conv2.2.weight f4 [32]
1.0 1.0 1.0 1.0 1.0 1.0 1.0 1.0
1.0 1.0 1.0 1.0 1.0 1.0 1.0 1.0
1.0 1.0 1.0 1.0 1.0 1.0 1.0 1.0
1.0 1.0 1.0 1.0 1.0 1.0 1.0 1.0
00000000: 0000 803f 0000 803f 0000 803f 0000 803f
00000010: 0000 803f 0000 803f 0000 803f 0000 803f
00000020: 0000 803f 0000 803f 0000 803f 0000 803f
00000030: 0000 803f 0000 803f 0000 803f 0000 803f
00000040: 0000 803f 0000 803f 0000 803f 0000 803f
00000050: 0000 803f 0000 803f 0000 803f 0000 803f
00000060: 0000 803f 0000 803f 0000 803f 0000 803f
00000070: 0000 803f 0000 803f 0000 803f 0000 803f

conv2.2.bias f4 [32]
0.0 0.0 0.0 0.0 0.0 0.0 0.0 0.0
0.0 0.0 0.0 0.0 0.0 0.0 0.0 0.0
0.0 0.0 0.0 0.0 0.0 0.0 0.0 0.0
0.0 0.0 0.0 0.0 0.0 0.0 0.0 0.0
00000000: 0000 0000 0000 0000 0000 0000 0000 0000
00000010: 0000 0000 0000 0000 0000 0000 0000 0000
00000020: 0000 0000 0000 0000 0000 0000 0000 0000
00000030: 0000 0000 0000 0000 0000 0000 0000 0000
00000040: 0000 0000 0000 0000 0000 0000 0000 0000
00000050: 0000 0000 0000 0000 0000 0000 0000 0000
00000060: 0000 0000 0000 0000 0000 0000 0000 0000
00000070: 0000 0000 0000 0000 0000 0000 0000 0000

conv2.2.running_mean f4 [32]
0.0 0.0 0.0 0.0 0.0 0.0 0.0 0.0
0.0 0.0 0.0 0.0 0.0 0.0 0.0 0.0
0.0 0.0 0.0 0.0 0.0 0.0 0.0 0.0
0.0 0.0 0.0 0.0 0.0 0.0 0.0 0.0
00000000: 0000 0000 0000 0000 0000 0000 0000 0000
00000010: 0000 0000 0000 0000 0000 0000 0000 0000
00000020: 0000 0000 0000 0000 0000 0000 0000 0000
00000030: 0000 0000 0000 0000 0000 0000 0000 0000
00000040: 0000 0000 0000 0000 0000 0000 0000 0000
00000050: 0000 0000 0000 0000 0000 0000 0000 0000
00000060: 0000 0000 0000 0000 0000 0000 0000 0000
00000070: 0000 0000 0000 0000 0000 0000 0000 0000

conv2.2.running_var f4 [32]
1.0 1.0 1.0 1.0 1.0 1.0 1.0 1.0
1.0 1.0 1.0 1.0 1.0 1.0 1.0 1.0
1.0 1.0 1.0 1.0 1.0 1.0 1.0 1.0
1.0 1.0 1.0 1.0 1.0 1.0 1.0 1.0
00000000: 0000 803f 0000 803f 0000 803f 0000 803f
00000010: 0000 803f 0000 803f 0000 803f 0000 803f
00000020: 0000 803f 0000 803f 0000 803f 0000 803f
00000030: 0000 803f 0000 803f 0000 803f 0000 803f
00000040: 0000 803f 0000 803f 0000 803f 0000 803f
00000050: 0000 803f 0000 803f 0000 803f 0000 803f
00000060: 0000 803f 0000 803f 0000 803f 0000 803f
00000070: 0000 803f 0000 803f 0000 803f 0000 803f

conv2.3.weight f4 [32, 32, 4, 1]
0.033144295 0.082239114 -0.02350726 0.047207676 -0.066360645 0.055553325 -0.031225894 -0.0510975
-0.06048969 -0.010042749 0.018726192 0.07075418 0.07150411 0.044270687 -0.014385626 0.05101291
0.069838844 -0.030143712 -0.031449463 -0.015288748 -0.044145178 0.083895035 -0.06945439 -0.0056324825
0.029995702 0.036028735 -0.023536012 0.05958391 0.020095058 -0.034619305 0.059072025 -0.06747615
0.047111876 0.0080688 0.07405918 3.822148e-06 -0.07705139 -0.019880593 0.0770349 -0.07634288
0.0019620657 -0.047668327 -0.08329851 -0.043943178 -0.027106788 -0.08653222 -0.086615816 -0.014511436
-0.059217036 -0.036858853 -0.01035396 0.06487977 -0.0082991645 0.07474867 0.06324551 -0.043330975
-0.077792026 -0.05320007 0.013009153 0.008331999 0.08777102 0.0040593296 -0.014970183 0.0533079
0.07249691 -0.021461472 0.025194973 0.043825157 -0.08088565 0.07190732 0.025613032 -0.025550291
0.013389833 -0.07089338 -0.051908057 -0.058550075 0.07798634 0.06721077 -0.05060472 -0.04932685
-0.08249115 0.073137306 0.010020316 0.047738396 -0.059114326 -0.07657307 -0.060856856 0.011842862
-0.07835175 -0.0028315485 -0.06673661 -0.024284936 -0.08685277 -0.07035662 -0.0039541125 0.011592098
-0.08601531 -0.028562602 -0.03849082 0.017951079 -0.058047317 0.017162777 -0.04106383 0.04325003
-0.015978113 0.016716547 -0.031948954 -0.033541452 -0.08110269 -0.041659273 0.049342074 -0.03760445
0.071318366 0.026906222 -0.065872714 -0.008694008 -0.009322271 -0.05896973 0.050223373 0.03605081
-0.03157823 0.039755113 0.05435411 -0.0523789 -0.019573458 -0.08294915 0.05421663 0.07706543
0.02207397 0.072306104 -0.005744025 -0.011483818 -0.01858972 -0.08201537 0.042285584 0.06831635
-0.068972886 -0.0529219 0.076120935 -0.05676347 -0.052616335 -0.07076092 0.052367978 -0.038098633
0.051994286 0.0030604824 -0.0719886 -0.030299991 -0.020726882 -0.0029134303 0.02348096 -0.029640961
0.0614684 -0.007755302 0.06740668 -0.011234783 0.055821545 -0.024188139 -0.06618103 0.010226481
0.023926072 -0.060388185 0.04633697 0.08139347 0.06835986 0.07807992 0.018023707 -0.073265396
0.020232886 -0.0032617897 -0.0445814 0.08207465 -0.0840986 0.045429967 -0.07516649 -0.060821988
0.027448885 -0.051524553 -0.082327776 0.04485049 0.033854045 0.08068434 -0.0057110116 -0.033692222
0.0026586726 -0.048917286 0.060856394 -0.061996948 -0.07841408 -0.02931716 0.032846205 0.034519345
0.013871521 0.0061844885 -0.0115279555 -0.026496734 -0.05441197 0.06900973 -0.060424145 -0.07380255
0.011951812 0.08337832 -0.0078672245 0.048266597 0.08506716 -0.049185466 0.042059682 0.077813275
-0.058817476 -0.032375637 0.07527263 0.08125027 0.043667518 -0.08411072 0.07193553 0.011941761
0.012934603 0.047261156 -0.0019482449 0.030182168 -0.05538868 0.080780454 0.07447343 0.047345422
0.069855265 -0.058000173 0.003037408 -0.06818834 -0.065527126 -0.064413935 0.070377834 -0.008521348
-0.047236808 0.0040383115 -0.08110287 0.04018902 -0.067158744 -0.06402655 -0.067738 0.06972223
0.062476 0.03185887 -0.05992827 0.078751855 -0.0023162216 0.06463457 0.07563127 0.005410835
-0.058820773 -0.07725068 -0.06143787 0.056139655 -0.012815222 0.010493934 0.026615374 -0.0040456057
00000000: 50c2 073d fb6c a83d 4c92 c0bc d65c 413d
00000010: 17e8 87bd e28b 633d 72cd ffbc 9d4b 51bd
00000020: 0ac4 77bd 588a 24bc ac67 993c 91e7 903d
00000030: bf70 923d 2e55 353d b0b1 6bbc eaf2 503d
00000040: ab07 8f3d f2ef f6bc 27d1 00bd a87d 7abc
00000050: 93d1 34bd 29d1 ab3d 1a3e 8ebd b090 b8bb
00000060: 8cb9 f53c de92 133d 98ce c0bc 420e 743d
00000070: 649e a43c f9cc 0dbd 82f5 713d f030 8abd
00000080: 62f8 403d 0033 043c 57ac 973d 0040 8036
00000090: 1fcd 9dbd a0dc a2bc 79c4 9d3d a859 9cbd
000000a0: 0096 003b dd3f 43bd 6998 aabd c3fd 33bd
000000b0: 0e0f debc ce37 b1bd a263 b1bd 60c1 6dbc
000000c0: 908d 72bd 4ff9 16bd a8a3 29bc afdf 843d
000000d0: 38f9 07bc d515 993d dd86 813d d27b 31bd
000000e0: 6d51 9fbd 51e8 59bd 5824 553c f082 083c
000000f0: 4bc1 b33d 2004 853b 8045 75bc 6259 5a3d
00000100: 4379 943d f8cf afbc b065 ce3c 0282 333d
00000110: 60a7 a5bd 2544 933d 6cd2 d13c d84e d1bc
00000120: 0861 5b3c 8c30 91bd 8b9d 54bd 34d2 6fbd
00000130: 4db7 9f3d cda5 893d e546 4fbd f30a 4abd
00000140: 1ff1 a8bd 03c9 953d 402c 243c 5689 433d
00000150: dd21 72bd 57d2 9cbd 0a45 79bd 9008 423c
00000160: e276 a0bd 8091 39bb 34ad 88bd 34f1 c6bc
00000170: dddf b1bd 2217 90bd 8091 81bb c8ec 3d3c
00000180: cb28 b0bd 1efc e9bc 8da8 1dbd 240e 933c
00000190: 06c3 6dbd f498 8c3c 8c32 28bd f226 313d
000001a0: 88e4 82bc 24f1 883c e8dc 02bd c362 09bd
000001b0: 2b19 a6bd eaa2 2abd ea1a 4a3d 2007 1abd
000001c0: 5d0f 923d 706a dc3c 46e8 86bd 5071 0ebc
000001d0: 70bc 18bc 3e8a 71bd 06b7 4d3d 04aa 133d
000001e0: 2d58 01bd 42d6 223d 6aa2 5e3d 428b 56bd
000001f0: 8458 a0bc 3ee1 a9bd 4212 5e3d 7bd4 9d3d
00000200: 78d4 b43c 3915 943d 6038 bcbb a026 3cbc
00000210: 7849 98bc adf7 a7bd a633 2d3d 71e9 8b3d
00000220: a841 8dbd a2c4 58bd 4be5 9b3d d080 68bd
00000230: 3a84 57bd 1aeb 90bd ce7f 563d 500d 1cbd
00000240: f6f7 543d 6092 483b c26e 93bd b037 f8bc
00000250: 6ccb a9bc 40ef 3ebb 245b c03c 9ad1 f2bc
00000260: 4ac6 7b3d 3020 febb 830c 8a3d 1812 38bc
00000270: 22a5 643d 3426 c6bc eb89 87bd f88c 273c
00000280: 9c00 c43c 9a59 77bd d6cb 3d3d 9fb1 a63d
00000290: 4100 8c3d 5de8 9f3d 74a6 933c 2b0c 96bd
000002a0: 70bf a53c c0c3 55bb fc9a 36bd c116 a83d
000002b0: e33b acbd c614 3a3d e4f0 99bd 7a20 79bd
000002c0: 7cdc e03c 690b 53bd 779b a8bd 26b5 373d
000002d0: 8aaa 0a3d d53d a53d 7023 bbbb db00 0abd
000002e0: 203d 2e3b 7e5d 48bd 8e44 793d 83f0 7dbd
000002f0: 9097 a0bd 8a2a f0bc be89 063d 2864 0d3d
00000300: 6045 633c 40a7 ca3b c0df 3cbc ae0f d9bc
00000310: 16df 5ebd f954 8d3d 4f7f 77bd cb25 97bd
00000320: 88d1 433c 41c2 aa3d 88e5 00bc 32b3 453d
00000330: b137 ae3d b376 49bd c646 2c3d 915c 9f3d
00000340: 98ea 70bd 519c 04bd 8928 9a3d 8b66 a63d
00000350: b6dc 323d 3e42 acbd ef52 933d 60a7 433c
00000360: a8eb 533c ea94 413d 405c ffba 9840 f73c
00000370: 3edf 62bd 3970 a53d 8785 983d 46ed 413d
00000380: 4710 8f3d 9791 6dbd 400f 473b 54a6 8bbd
00000390: 1633 86bd 74eb 83bd 4122 903d 209d 0bbc
000003a0: 627b 41bd d053 843b 4319 a6bd 3e9d 243d
000003b0: 868a 89bd 5a20 83bd 38ba 8abd 87ca 8e3d
000003c0: d6e6 7f3d 727e 023d 5877 75bd a748 a13d
000003d0: c0cb 17bb 215f 843d 91e4 9a3d 604d b13b
000003e0: 0dee 70bd 9b35 9ebd 47a6 7bbd b2f2 653d
000003f0: f0f6 51bc c0ee 2b3c 7c08 da3c 0091 84bb

conv2.3.bias f4 [32]
0.012058318 0.034866728 -0.04694608 0.02024179 -0.07544021 0.0193353 -0.07131164 0.05336409
-0.077368915 0.05281029 -0.017813183 0.07761442 0.009098701 -0.007386908 0.020388156 -0.07642871
-0.07704003 0.012783043 0.02210997 0.050578006 0.052045308 -0.0028191358 -0.07204555 0.048418738
0.08423904 -0.06925095 -0.04154694 0.06830851 -0.08183838 -0.0027687624 0.066295944 0.02206318
00000000: 4090 453c 6ad0 0e3d 884a 40bd 1cd2 a53c
00000010: 6680 9abd 1065 9e3c d60b 92bd 4e94 5a3d
00000020: 9873 9ebd 9a4f 583d f4ec 91bc 4ff4 9e3d
00000030: b812 153c e00d f2bb 1005 a73c a886 9cbd
00000040: 2ac7 9dbd f86f 513c f81f b53c e22a 4f3d
00000050: 762d 553d 40c1 38bb 9e8c 93bd ba52 463d
00000060: 8585 ac3d 71d3 8dbd 202d 2abd 55e5 8b3d
00000070: e19a a7bd 2074 35bb 2bc6 873d d8bd b43c

conv2.5.weight f4 [32]
1.0 1.0 1.0 1.0 1.0 1.0 1.0 1.0
1.0 1.0 1.0 1.0 1.0 1.0 1.0 1.0
1.0 1.0 1.0 1.0 1.0 1.0 1.0 1.0
1.0 1.0 1.0 1.0 1.0 1.0 1.0 1.0
00000000: 0000 803f 0000 803f 0000 803f 0000 803f
00000010: 0000 803f 0000 803f 0000 803f 0000 803f
00000020: 0000 803f 0000 803f 0000 803f 0000 803f
00000030: 0000 803f 0000 803f 0000 803f 0000 803f
00000040: 0000 803f 0000 803f 0000 803f 0000 803f
00000050: 0000 803f 0000 803f 0000 803f 0000 803f
00000060: 0000 803f 0000 803f 0000 803f 0000 803f
00000070: 0000 803f 0000 803f 0000 803f 0000 803f

conv2.5.bias f4 [32]
0.0 0.0 0.0 0.0 0.0 0.0 0.0 0.0
0.0 0.0 0.0 0.0 0.0 0.0 0.0 0.0
0.0 0.0 0.0 0.0 0.0 0.0 0.0 0.0
0.0 0.0 0.0 0.0 0.0 0.0 0.0 0.0
00000000: 0000 0000 0000 0000 0000 0000 0000 0000
00000010: 0000 0000 0000 0000 0000 0000 0000 0000
00000020: 0000 0000 0000 0000 0000 0000 0000 0000
00000030: 0000 0000 0000 0000 0000 0000 0000 0000
00000040: 0000 0000 0000 0000 0000 0000 0000 0000
00000050: 0000 0000 0000 0000 0000 0000 0000 0000
00000060: 0000 0000 0000 0000 0000 0000 0000 0000
00000070: 0000 0000 0000 0000 0000 0000 0000 0000

conv2.5.running_mean f4 [32]
0.0 0.0 0.0 0.0 0.0 0.0 0.0 0.0
0.0 0.0 0.0 0.0 0.0 0.0 0.0 0.0
0.0 0.0 0.0 0.0 0.0 0.0 0.0 0.0
0.0 0.0 0.0 0.0 0.0 0.0 0.0 0.0
00000000: 0000 0000 0000 0000 0000 0000 0000 0000
00000010: 0000 0000 0000 0000 0000 0000 0000 0000
00000020: 0000 0000 0000 0000 0000 0000 0000 0000
00000030: 0000 0000 0000 0000 0000 0000 0000 0000
00000040: 0000 0000 0000 0000 0000 0000 0000 0000
00000050: 0000 0000 0000 0000 0000 0000 0000 0000
00000060: 0000 0000 0000 0000 0000 0000 0000 0000
00000070: 0000 0000 0000 0000 0000 0000 0000 0000

conv2.5.running_var f4 [32]
1.0 1.0 1.0 1.0 1.0 1.0 1.0 1.0
1.0 1.0 1.0 1.0 1.0 1.0 1.0 1.0
1.0 1.0 1.0 1.0 1.0 1.0 1.0 1.0
1.0 1.0 1.0 1.0 1.0 1.0 1.0 1.0
00000000: 0000 803f 0000 803f 0000 803f 0000 803f
00000010: 0000 803f 0000 803f 0000 803f 0000 803f
00000020: 0000 803f 0000 803f 0000 803f 0000 803f
00000030: 0000 803f 0000 803f 0000 803f 0000 803f
00000040: 0000 803f 0000 803f 0000 803f 0000 803f
00000050: 0000 803f 0000 803f 0000 803f 0000 803f
00000060: 0000 803f 0000 803f 0000 803f 0000 803f
00000070: 0000 803f 0000 803f 0000 803f 0000 803f

conv2.6.weight f4 [32, 32, 4, 1]
-0.05640948 -0.021293096 -0.06730267 -0.047399115 -0.08045184 0.014072865 -0.03882775 0.08286337
0.0457839 0.051605813 -0.006586507 -0.05246287 0.083975606 0.020368025 -0.045077488 -0.015488327
-0.046958625 0.0038140714 0.060804717 0.044154473 -0.07797627 0.010207973 0.0018717125 -0.017783284
0.08336408 -0.03705791 0.04516747 -0.07454918 0.04286129 0.032782145 0.07740664 0.011561111
0.061760448 0.022541158 -0.08632655 -0.036608353 0.03278012 -0.0783051 -0.01636494 0.054289706
-0.015011884 -0.044165757 -0.077389285 -0.077120885 0.0031379461 -0.085609026 -0.039423287 -0.035608575
-0.035337254 0.021546625 -0.023492262 -0.043445107 -0.06530681 -0.040249713 -0.085408434 0.048563875
0.07609426 0.017514952 0.073248185 -0.079347596 0.014445856 0.061839275 0.06782626 0.01593393
0.02481521 -0.034857444 0.03680808 -0.023410015 -0.061469354 0.01999706 0.04150381 -0.007017061
0.06344507 0.017230116 -0.081878185 0.02474843 0.05988861 0.043925963 0.07878805 -0.064321265
0.046682186 -0.04745421 -0.045808546 0.050835617 -0.036513902 -0.04825182 -0.06842981 -0.0035987794
-0.083939895 -0.060147315 0.05001732 -0.072996706 -0.012416333 -0.071218066 0.04973734 -0.012448147
-0.043496296 -0.032068927 0.059738792 0.018966302 0.0116885975 -0.053465046 0.03994883 -0.06999051
-0.07542896 0.078447826 -0.035448376 -0.03168304 0.026066728 -0.053008206 -0.08619758 0.044649236
-0.056449242 -0.02663681 0.021902904 -0.017434329 0.03608966 0.06307345 0.038731135 0.05984593
0.016889878 0.029485278 0.05067613 0.036704548 0.007612124 -0.017951898 0.04081727 -0.024432525
-0.055983048 -0.07562158 -0.074461035 0.028371148 -0.07803698 -0.058606416 -0.04674942 -0.0069325045
0.043529354 -0.002079606 0.07849669 0.08835948 0.083588935 0.07758447 0.050697766 -0.032678243
-0.046633538 0.03322807 -0.0090754405 0.08828806 -0.026134565 0.067048796 -0.0056758747 0.037055902
-0.0761282 0.05139754 -0.08103423 0.031822406 0.03053464 -0.051330246 -0.047639616 -0.085743
0.07975056 -0.08627609 -0.011880934 0.021631598 0.045080043 0.044126295 -0.0675867 -0.025469087
0.08604836 0.07328642 0.066002525 0.07364645 0.07190388 0.075927 -0.014996387 0.009969324
0.015547298 -0.07573875 -0.032811143 0.043645956 0.04669971 0.016287416 0.044372387 -0.015135273
-0.08110496 0.048156075 0.0734827 0.027919322 0.08025194 -0.07426531 0.0035939142 -0.08245559
0.019476742 -0.036132008 0.07702536 -0.05936218 0.063462235 -0.046670068 -0.0039500743 0.012299739
-0.06113024 0.060109936 0.02781064 -0.011355855 -0.055786517 -0.05942384 -0.041802246 0.055427186
0.0007305518 0.033428185 0.024561077 -0.077520266 -0.076236784 0.0064549297 0.08558547 -0.06343904
-0.006981507 0.024737895 -0.06820792 -0.046747796 -0.006492406 -0.016198054 -0.08163728 -0.05743684
0.0033939257 0.07797503 -0.08147289 0.042489655 -0.07510794 -0.018169105 0.013928287 -0.011063993
0.0029826686 -0.032329656 -0.013046227 0.06551237 0.03636489 0.056885608 -0.02217985 -0.030370332
-0.06871834 -0.06924157 0.05922053 -0.07531841 0.042535402 0.034667633 -0.019892387 0.076839186
-0.02190692 0.062698476 -0.008790471 0.03473582 -0.04821595 0.07107433 0.087437384 0.012449101
00000000: a00d 67bd dc6e aebc fbd5 89bd 9325 42bd
00000010: efc3 a4bd e091 663c d909 1fbd 45b4 a93d
00000020: e687 3b3d 9e60 533d a0d3 d7bb 4ee3 56bd
00000030: 67fb ab3d d8da a63c 2ca3 38bd c0c2 7dbc
00000040: b057 40bd 80f5 793b 5e0e 793d 52db 343d
00000050: 06b2 9fbd 583f 273c 4054 f53a 40ae 91bc
00000060: c9ba aa3d 09ca 17bd 8601 393d 3ead 98bd
00000070: 528f 2f3d 9246 063d 5f87 9e3d d06a 3d3c
00000080: 86f8 7c3d 3ca8 b83c f9cb b0bd a4f2 15bd
00000090: 7244 063d 6d5e a0bd c40f 86bc e25e 5e3d
000000a0: 68f4 75bc 27e7 34bd 467e 9ebd 8ef1 9dbd
000000b0: 00a6 4d3b c953 afbd 507a 21bd 4cda 11bd
000000c0: ccbd 10bd 8c82 b03c d872 c0bc 7ff3 31bd
000000d0: 94bf 85bd e2dc 24bd 9eea aebd eaea 463d
000000e0: 4fd7 9b3d 847b 8f3c 2503 963d fe80 a2bd
000000f0: 50ae 6c3c 2e4b 7d3d 7fe8 8a3d e087 823c
00000100: 4449 cb3c aec6 0ebd 12c4 163d 5cc6 bfbc
00000110: 4ac7 7bbd e0d0 a33c e6ff 293d 60ef e5bb
00000120: 7def 813d 2c26 8d3c c0af a7bd 38bd ca3c
00000130: c24d 753d b6eb 333d a15b a13d deba 83bd
00000140: d235 3f3d 595f 42bd bea1 3bbd 0239 503d
00000150: 9a8f 15bd b3a3 45bd ee24 8cbd 80d9 6bbb
00000160: aee8 abbd 085d 76bd f6de 4c3d 4c7f 95bd
00000170: e06d 4bbc c7da 91bd 62b9 4b3d 50f3 4bbc
00000180: 2c29 32bd b55a 03bd aab0 743d 385f 9b3c
00000190: 8881 3f3c 2afe 5abd 62a1 233d 2f57 8fbd
000001a0: 807a 9abd 41a9 a03d 5132 11bd 13c6 01bd
000001b0: e489 d53c 221f 59bd 5b88 b0bd 1ee2 363d
000001c0: 5237 67bd 7035 dabc b86d b33c 70d2 8ebc
000001d0: c0d2 133d a72c 813d 8aa4 1e3d 0221 753d
000001e0: a45c 8a3c 1c8b f13c c691 4f3d 8257 163d
000001f0: 206f f93b dc0f 93bc 0230 273d b826 c8bc
00000200: 7b4e 65bd 7ddf 9abd 077f 98bd 9c6a e83c
00000210: dad1 9fbd 480d 70bd 527c 3fbd 102a e3bb
00000220: d64b 323d 004a 08bb dfc2 a03d d1f5 b43d
00000230: ad30 ab3d 9be4 9e3d 76a8 4f3d 9fd9 05bd
00000240: cf02 3fbd 281a 083d 28b1 14bc 5fd0 b43d
00000250: 2818 d6bc e150 893d b0fc b9bb eec7 173d
00000260: 1ae9 9bbd 3a86 523d 46f5 a5bd 3658 023d
00000270: c823 fa3c aa3f 52bd c221 43bd 079a afbd
00000280: 4354 a33d 85b1 b0bd 40a8 42bc c034 b13c
00000290: daa5 383d c6bd 343d e56a 8abd 8ca4 d0bc
000002a0: 1f3a b03d 3117 963d 552c 873d f3d3 963d
000002b0: 5742 933d 9d7f 9b3d 68b3 75bc 6056 233c
000002c0: 18ba 7e3c eb1c 9bbd fa64 06bd 1ac6 323d
000002d0: 3248 3f3d 306d 853c d2bf 353d f0f9 77bc
000002e0: 5b1a a6bd 4e3f 453d 197e 963d 10b7 e43c
000002f0: 215b a43d 6918 98bd e087 6b3b 7ade a8bd
00000300: b08d 9f3c 28ff 13bd 79bf 9d3d c225 73bd
00000310: 7df8 813d 1d29 3fbd a06f 81bb d884 493c
00000320: b463 7abd d635 763d 24d3 e33c e80d 3abc
00000330: 6780 64bd 6a66 73bd d538 2bbd 9e07 633d
00000340: 8082 3f3a feeb 083d 5034 c93c f2c2 9ebd
00000350: 0822 9cbd e083 d33b 6f47 af3d 54ec 81bd
00000360: 20c5 e4bb 20a7 ca3c 98b0 8bbd 9e7a 3fbd
00000370: 40be d4bb c8b1 84bc 7231 a7bd e442 6bbd
00000380: a06c 5e3b 5fb1 9f3d 42db a6bd a209 2e3d
00000390: 31d2 99bd 60d7 94bc 7833 643c c045 35bc
000003a0: e078 433b 1a6c 04bd d8bf 55bc 592b 863d
000003b0: 5af3 143d e200 693d 84b2 b5bc 34cb f8bc
000003c0: 33bc 8cbd 86ce 8dbd 3a91 723d 8a40 9abd
000003d0: 9a39 2e3d a6ff 0d3d 5cf5 a2bc dd5d 9d3d
000003e0: 2476 b3bc 0f68 803d e805 10bc 2647 0e3d
000003f0: 177e 45bd 6b8f 913d 5f12 b33d 50f7 4b3c

conv2.6.bias f4 [32]
-0.08712669 0.07356536 0.0006891936 0.029724486 -0.08318455 0.046705447 0.012600653 -0.011262365
0.0332067 0.011062123 0.050642975 -0.0836318 0.040487923 -0.087376274 -0.01340393 0.0010734275
0.006441243 -0.02533605 0.084984355 0.0863092 0.005186498 0.042103462 0.038712643 -0.059886266
0.07183505 -0.0052807927 0.051526822 0.07759725 0.010617256 -0.04497444 0.03460215 0.047903113
00000000: 7a6f b2bd 6fa9 963d 00ab 343a c480 f33c
00000010: a95c aabd 364e 3f3d f872 4e3c c885 38bc
00000020: c003 083d e83d 353c 026f 4f3d 2647 abbd
00000030: aad6 253d 55f2 b2bd 289c 5bbc 40b2 8c3a
00000040: 1011 d33b 8c8d cfbc 470c ae3d e1c2 b03d
00000050: 80f3 a93b ae74 2c3d 2691 1e3d 4d4b 75bd
00000060: 411e 933d 800a adbb ca0d 533d 4feb 9e3d
00000070: 00f4 2d3c 1e37 38bd fcba 0d3d 0e36 443d

conv2.8.weight f4 [32]
1.0 1.0 1.0 1.0 1.0 1.0 1.0 1.0
1.0 1.0 1.0 1.0 1.0 1.0 1.0 1.0
1.0 1.0 1.0 1.0 1.0 1.0 1.0 1.0
1.0 1.0 1.0 1.0 1.0 1.0 1.0 1.0
00000000: 0000 803f 0000 803f 0000 803f 0000 803f
00000010: 0000 803f 0000 803f 0000 803f 0000 803f
00000020: 0000 803f 0000 803f 0000 803f 0000 803f
00000030: 0000 803f 0000 803f 0000 803f 0000 803f
00000040: 0000 803f 0000 803f 0000 803f 0000 803f
00000050: 0000 803f 0000 803f 0000 803f 0000 803f
00000060: 0000 803f 0000 803f 0000 803f 0000 803f
00000070: 0000 803f 0000 803f 0000 803f 0000 803f

conv2.8.bias f4 [32]
0.0 0.0 0.0 0.0 0.0 0.0 0.0 0.0
0.0 0.0 0.0 0.0 0.0 0.0 0.0 0.0
0.0 0.0 0.0 0.0 0.0 0.0 0.0 0.0
0.0 0.0 0.0 0.0 0.0 0.0 0.0 0.0
00000000: 0000 0000 0000 0000 0000 0000 0000 0000
00000010: 0000 0000 0000 0000 0000 0000 0000 0000
00000020: 0000 0000 0000 0000 0000 0000 0000 0000
00000030: 0000 0000 0000 0000 0000 0000 0000 0000
00000040: 0000 0000 0000 0000 0000 0000 0000 0000
00000050: 0000 0000 0000 0000 0000 0000 0000 0000
00000060: 0000 0000 0000 0000 0000 0000 0000 0000
00000070: 0000 0000 0000 0000 0000 0000 0000 0000

conv2.8.running_mean f4 [32]
0.0 0.0 0.0 0.0 0.0 0.0 0.0 0.0
0.0 0.0 0.0 0.0 0.0 0.0 0.0 0.0
0.0 0.0 0.0 0.0 0.0 0.0 0.0 0.0
0.0 0.0 0.0 0.0 0.0 0.0 0.0 0.0
00000000: 0000 0000 0000 0000 0000 0000 0000 0000
00000010: 0000 0000 0000 0000 0000 0000 0000 0000
00000020: 0000 0000 0000 0000 0000 0000 0000 0000
00000030: 0000 0000 0000 0000 0000 0000 0000 0000
00000040: 0000 0000 0000 0000 0000 0000 0000 0000
00000050: 0000 0000 0000 0000 0000 0000 0000 0000
00000060: 0000 0000 0000 0000 0000 0000 0000 0000
00000070: 0000 0000 0000 0000 0000 0000 0000 0000
